Week13/keras_model_cnn_fashion.tflite (tflite, 377096 bytes, 10 tensors)

sequential/dense/BiasAdd/ReadVariableOp f4 [64]
0	0xbc31f5d9	-0.010861837
1	0x3d32e4ab	0.043675106
2	0xbe079857	-0.13241707
3	0x3d8f2203	0.06988909
4	0xbca81b6e	-0.020520892
5	0x3d878a7a	0.06618209
6	0x3cb670ae	0.022270527
7	0x3d3386ef	0.043829855
8	0x3c8b2808	0.016986862
9	0x3d21bf05	0.03948881
10	0x3d70e883	0.05881549
11	0xbc8a49d0	-0.0168809
12	0xbb422d0d	-0.0029628903
13	0x3b1191a0	0.0022212043
14	0x3d1ecdb4	0.038770393
15	0x3e1547cf	0.14578174
16	0xbc5cbb7e	-0.013472436
17	0x3be60b0b	0.0070203594
18	0xbd3b5979	-0.045739625
19	0xbb6e2b45	-0.0036341709
20	0x3c97210a	0.018448371
21	0xbd33b716	-0.043875776
22	0xbc734af7	-0.014849416
23	0xbbf8fc2e	-0.0075984215
24	0xbc2507df	-0.010072677
25	0xbcd27e51	-0.025694998
26	0x3dd2a414	0.10285202
27	0xbc85d385	-0.016336212
28	0xbdaf57cb	-0.08561667
29	0x3db0433a	0.086065724
30	0x3d237984	0.03991081
31	0x3e1924e8	0.14955485
32	0x3c876f59	0.016532587
33	0xbb202a67	-0.0024439336
34	0xbb366194	-0.0027829157
35	0x3def39f7	0.11680978
36	0x3d856f38	0.06515354
37	0x3df2c211	0.118534215
38	0xbc66cb05	-0.01408649
39	0x3cde599f	0.027142344
40	0x3dbbd931	0.09172285
41	0xbd7fd4cc	-0.0624588
42	0x3d709740	0.058737993
43	0xbd4cae8f	-0.04997116
44	0x3e46a9b0	0.19400668
45	0xbd56d5bc	-0.052449927
46	0x3e2d3ae8	0.16917002
47	0x3d4ec169	0.05047742
48	0x3cb14987	0.021641506
49	0x3d9cd903	0.07658579
50	0xbce94a41	-0.02847779
51	0x3d681554	0.056660965
52	0x3bcb7006	0.0062084226
53	0xbd044f57	-0.032302227
54	0x3ddb338f	0.107031934
55	0xbd8d3b26	-0.06896047
56	0xbd4badbf	-0.049726244
57	0x3e1995d4	0.14998561
58	0x3c4a64a3	0.012353095
59	0x3cb05d2e	0.021528807
60	0x3d1ee324	0.038790837
61	0xbc5c6205	-0.013451104
62	0x3d2ceac3	0.042216074
63	0xbafc334a	-0.001924136

sequential/dense_1/BiasAdd/ReadVariableOp f4 [10]
0	0xbd15c284	-0.036562458
1	0xbda8e3b3	-0.08246555
2	0x3c765c21	0.015036614
3	0x3db4e7cc	0.08833274
4	0xbe0172b6	-0.12641415
5	0xbdf80575	-0.12110416
6	0x3debc77a	0.115126565
7	0x3d07f13d	0.033189047
8	0x3d3af848	0.045646936
9	0xbcc65d1a	-0.024214316

sequential/conv2d/BiasAdd/ReadVariableOp f4 [32]
0	0xbd2a1bfb	-0.04153059
1	0xbc542004	-0.012947086
2	0x3d99e2ba	0.07513948
3	0xbac29a2a	-0.001484697
4	0xbd025e6d	-0.031828333
5	0xbdcda651	-0.10041488
6	0xbda9c25a	-0.08289023
7	0xbc47417c	-0.012161609
8	0xbc2e50e9	-0.010639408
9	0x3bb1cd4f	0.005426086
10	0xbc736df8	-0.014857762
11	0xbda72648	-0.081615984
12	0x3940763e	0.00018354596
13	0xbc4175a9	-0.0118078375
14	0xbc76f5d1	-0.015073256
15	0x3ac83560	0.0015274696
16	0x3ab839cc	0.0014055311
17	0x3e244c70	0.16044784
18	0x3e0bd9df	0.1365733
19	0x3d951370	0.07279098
20	0xba7f8878	-0.00097478135
21	0xbb8d6e35	-0.004316116
22	0xbadb25c4	-0.0016719629
23	0x3d304847	0.04303768
24	0xbd281ab6	-0.0410411
25	0x3c89580b	0.016765615
26	0xbc7db4bc	-0.015484985
27	0x3de376b1	0.11106623
28	0xbc89debc	-0.01682984
29	0x3b45ffe9	0.0030212349
30	0x3b7bc342	0.0038415943
31	0xbbe93a92	-0.007117578

sequential/conv2d_2/BiasAdd/ReadVariableOp f4 [64]
0	0x3d711e10	0.05886656
1	0xbc179861	-0.009252639
2	0x3e702270	0.23450637
3	0x3df3a7f9	0.118972726
4	0xbc6fa376	-0.0146263745
5	0x3a996872	0.0011704101
6	0x3e456e10	0.19280267
7	0x3cb455b7	0.022013528
8	0x3c0b9fcf	0.008521988
9	0x3d547e89	0.051878486
10	0xbd628838	-0.05530569
11	0x3d4f1f5c	0.050567016
12	0x3dfb345c	0.12265846
13	0x3e0397a7	0.1285082
14	0x3ddb357d	0.107035615
15	0x3da399b1	0.07988299
16	0xbd1b4273	-0.037905168
17	0x3d480572	0.048833318
18	0x3d8cbad3	0.068715714
19	0x3e26eebd	0.16302009
20	0x3d0c37da	0.03423295
21	0x3dfdf26c	0.12399754
22	0xbd885716	-0.06657235
23	0xbd5d4e6d	-0.05402987
24	0x3d23388c	0.03984885
25	0x3c3144e8	0.010819651
26	0x3d8de962	0.0692928
27	0xbceb3341	-0.028710963
28	0x3d42f7dc	0.04759966
29	0x3dd1aafc	0.10237691
30	0xbc67e4a8	-0.014153637
31	0x3d22e855	0.03977235
32	0x3dae9bf6	0.08525841
33	0x3e0bf3ab	0.1366717
34	0xbd0394af	-0.032124218
35	0xbc0a33e6	-0.008435225
36	0xbcd6d9bb	-0.026226869
37	0x3db9bc90	0.090691686
38	0xbdd94fe0	-0.10610938
39	0x3b91d251	0.0044501205
40	0xbce4f151	-0.0279471
41	0xbd141cd1	-0.036160294
42	0x3daafebc	0.08349368
43	0xbd380e0c	-0.04493527
44	0xbdd8853f	-0.1057229
45	0xbc8fa765	-0.017535875
46	0x3d83149c	0.06400415
47	0xbd0839a7	-0.033258107
48	0x3d3c5762	0.045981772
49	0x3dd81c6c	0.10552296
50	0xbbda79ea	-0.0066673653
51	0x3dba7950	0.0910517
52	0x3e2f55c2	0.17122558
53	0x3e1c31ac	0.15253323
54	0xbc42ec8e	-0.011897219
55	0xbdcc325c	-0.09970543
56	0xbc49a87a	-0.012308234
57	0xbd8c2a0a	-0.06843956
58	0x3e0daae0	0.13834715
59	0x3ddfaaca	0.10921247
60	0x3d029291	0.031878058
61	0x3e1e5ced	0.15465136
62	0x3d489529	0.048970375
63	0xbd20d480	-0.039265156

sequential/conv2d_1/BiasAdd/ReadVariableOp f4 [64]
0	0xbd28383e	-0.04106926
1	0xbd58ca24	-0.05292715
2	0xbcb82a54	-0.022481121
3	0xbc2fc5cd	-0.010728312
4	0xbdc9c34e	-0.098517045
5	0xbca15ec0	-0.0196985
6	0xbdea8257	-0.114506416
7	0xbc242c43	-0.010020318
8	0x3ceb2633	0.028704738
9	0xbd45506e	-0.048172407
10	0x3ca195ae	0.019724693
11	0xbd0aea13	-0.033914637
12	0xbced5e31	-0.028975578
13	0xbcf9c5d5	-0.030489841
14	0x3cecb79e	0.02889615
15	0x3e52cc5c	0.2058577
16	0x3dd56280	0.10419178
17	0xbdbf87f9	-0.093521066
18	0xbd806f11	-0.06271184
19	0x3e2cb59b	0.16866152
20	0xbdda7b89	-0.10668094
21	0x3c912057	0.017715616
22	0x3eac0f70	0.33605528
23	0xbab83234	-0.0014053048
24	0xbd05a3fb	-0.032627087
25	0xbd0496b6	-0.03237029
26	0x3df029e4	0.1172674
27	0xbd12707f	-0.035751816
28	0x3e5d6969	0.21622242
29	0xbd205c45	-0.039150495
30	0xbdda952c	-0.106729835
31	0x3ce6f20b	0.028191587
32	0x3d8106a0	0.06300092
33	0xbd32be36	-0.04363843
34	0xbb990a36	-0.0046704067
35	0x3cf2da50	0.029645115
36	0xbc7633f8	-0.015027039
37	0xbcf51ac6	-0.029919993
38	0x3d6f0e3b	0.05836318
39	0x3d18009d	0.03710996
40	0x3e26fd9c	0.16307682
41	0x3c9c18d8	0.019054815
42	0x3dd810ea	0.10550101
43	0xbb34dfeb	-0.0027599286
44	0xbd40506b	-0.046951693
45	0xbd78fdda	-0.060788967
46	0x3e1446fc	0.14480203
47	0xbcc3dff0	-0.023910493
48	0xbe163dda	-0.14672032
49	0xbda84483	-0.082161926
50	0xbcb617b1	-0.022228094
51	0xbbd6c1cf	-0.0065538655
52	0x3d91a245	0.071110286
53	0xbce9baed	-0.028531516
54	0xbc9b6124	-0.018967219
55	0xbd5e0fbf	-0.054214235
56	0xbd8a69c1	-0.06758452
57	0xbc9a726a	-0.018853385
58	0x3d17523d	0.036943663
59	0x3d5d6b10	0.05405718
60	0x3dbb88dc	0.09156963
61	0xbdb0fdb1	-0.08642138
62	0xbc8ce318	-0.01719813
63	0xbdd74e1b	-0.10512944

sequential/dense/MatMul f4 [64, 576]
0	0xbc30cbc8	-0.010790773
1	0x3d5637a8	0.05229917
2	0xbd6f4783	-0.05841781
3	0x3dee253c	0.11628196
4	0xbdb298ad	-0.08720527
5	0xbe5f4e54	-0.21807224
6	0x3d243a28	0.040094525
7	0xbde4fccc	-0.1118103
8	0x3c3fa235	0.011696388
9	0x3dcd1d3d	0.100153424
10	0xbdb20264	-0.08691862
11	0xbc27f4c4	-0.010251228
12	0xbdeb06e5	-0.114759244
13	0xbc056a83	-0.00814307
14	0xbdcf7841	-0.101303585
15	0xbd3a9b19	-0.04555807
16	0x3d370773	0.04468484
17	0x3d3a8648	0.045538217
18	0x3e040ba7	0.1289507
19	0x3d1de297	0.03854617
20	0xbc9beb5f	-0.019033132
21	0x3d0c71f2	0.034288354
22	0xbe0558cc	-0.13022155
23	0xbd7cf9aa	-0.061761536
24	0xbd33de60	-0.043913245
25	0xbc1c3246	-0.0095334705
26	0x3d8ec54b	0.069712244
27	0xbd3b6c91	-0.045757834
28	0x3c2c306f	0.010509594
29	0xbc9cf7ac	-0.019161068
30	0x3c4f48b4	0.012651611
31	0xbbb0a67b	-0.00539094
32	0x3d078533	0.033086013
33	0x3bab445d	0.0052266554
34	0xbd94ed06	-0.07271771
35	0xbd8f8bc4	-0.0700908
36	0xbe0242c7	-0.12720786
37	0x3d86f114	0.06588951
38	0x3e129587	0.14314853
39	0xbd7331a9	-0.05937353
40	0xbcce0852	-0.025150452
41	0xbd846252	-0.064640656
42	0x3e221743	0.15829186
43	0x3d994d27	0.07485419
44	0x3bca890d	0.0061808885
45	0xbe53c634	-0.20681077
46	0x3d34d7ef	0.044151243
47	0xbd60bdeb	-0.05486862
48	0x3e05a2c6	0.13050374
49	0x3dc7fe7f	0.09765338
50	0xbdb76f84	-0.08956817
51	0xbe0bee2c	-0.13665074
52	0xbe181378	-0.14851177
53	0xbcd578fe	-0.02605867
54	0x3d96660a	0.07343681
55	0x3db0d873	0.086350344
56	0xbd92a7ab	-0.071608864
57	0xbd82b875	-0.06382839
58	0xbc69b85e	-0.014265148
59	0x3d9d8a11	0.0769235
60	0xbe842a93	-0.25813732
61	0xbd93ac2f	-0.07210576
62	0xbc84bb99	-0.016202735
63	0xbb23aacb	-0.0024973627
64	0x3ca18e4f	0.019721178
65	0x3ddb1acf	0.10698473
66	0x3d9999f5	0.07500068
67	0xbe5bcd6a	-0.21465078
68	0xbb9c7a82	-0.0047753463
69	0xbcad5c47	-0.021162165
70	0x3e586d81	0.21135522
71	0x3e28766a	0.16451421
72	0x3d0d47e4	0.03449239
73	0x3d02948a	0.03187994
74	0x3e23443b	0.15943997
75	0xbe1510ff	-0.14557265
76	0x3e9e6063	0.30932912
77	0x3ca65aa8	0.0203069
78	0x3e70ce44	0.23516184
79	0xbe0ac035	-0.13549884
80	0x3c39151d	0.011296538
81	0xbe3e7c96	-0.18602213
82	0x3c82d47a	0.015970457
83	0x3dbee2b7	0.09320586
84	0x3c430ec3	0.011905375
85	0xbdd01abf	-0.101613514
86	0x3d6e8667	0.058233645
87	0xbe6655a4	-0.22493607
88	0xbe1a1df5	-0.1505049
89	0xbbbfa71c	-0.0058487784
90	0x3cdca01b	0.026931813
91	0xbdd2a077	-0.102845125
92	0x3e069274	0.13141805
93	0x3e4315ca	0.1905128
94	0xbd12d4cb	-0.035847466
95	0xbb8ab2e6	-0.004232752
96	0xbe86da39	-0.26338366
97	0x3c0fb84e	0.008771969
98	0xbc2c23d0	-0.010506585
99	0xbd185775	-0.03719278
100	0xbd690a99	-0.056894872
101	0x3e064932	0.1311386
102	0x3d9f1098	0.07766837
103	0xbdc3d9ef	-0.09563052
104	0x3c9d0911	0.019169362
105	0x3d5e06a3	0.054205548
106	0xbd38f1bb	-0.045152407
107	0x3d2881de	0.041139476
108	0x3cde6c89	0.027151363
109	0xbd9d89a9	-0.07692272
110	0xbd5a56e6	-0.05330553
111	0x3cf3f498	0.029779717
112	0xbe1abc14	-0.15110809
113	0x3e147896	0.14499125
114	0x3cbac0fb	0.022797098
115	0x3e3ef2a1	0.18647243
116	0xbe25a599	-0.16176452
117	0xbd08b735	-0.033377845
118	0xbd8b60b3	-0.06805553
119	0x3e05025a	0.12989178
120	0x3c02e668	0.007989503
121	0xbb4b6eab	-0.0031041305
122	0x3e142278	0.14466274
123	0x3e81647c	0.25271976
124	0xbdb0334f	-0.08603536
125	0x3d6f25c7	0.058385637
126	0xbde02f78	-0.10946554
127	0xbd9ad903	-0.07560923
128	0x3e18f28c	0.14936274
129	0xbcb41e7e	-0.021987196
130	0x3c6fc3af	0.014634057
131	0x3e03be20	0.12865496
132	0xbcea4de1	-0.028601589
133	0xbe10ff4c	-0.14159888
134	0x3db99bc3	0.09062912
135	0x3e29da3e	0.16587159
136	0x3ce3667d	0.027758831
137	0x3b0fe457	0.002195617
138	0xbcaf03f3	-0.021364188
139	0xbe1b7b5c	-0.15183777
140	0x3dfe69c4	0.12422517
141	0xbd9cd935	-0.076586165
142	0x3e1ff202	0.15619662
143	0x3d394263	0.045229327
144	0x3d833191	0.064059384
145	0x3db6e971	0.08931244
146	0x3e012728	0.12612593
147	0x3cdcc4f4	0.026949383
148	0x3ddb5d7a	0.107111886
149	0xbe44ecbb	-0.1923093
150	0x3d95f20f	0.0732156
151	0x3b9f9634	0.0048702005
152	0x3d475a67	0.0486702
153	0xbc663fdf	-0.014053314
154	0xbe8b7e47	-0.2724478
155	0x3d9f823f	0.07788514
156	0xbd2cc900	-0.042183876
157	0xbe511d37	-0.20421301
158	0x3d951abd	0.072804905
159	0xbdc2e828	-0.095169365
160	0xbc631f0e	-0.0138623845
161	0x3a25378e	0.0006302529
162	0x3d6e81d4	0.058229282
163	0xbd807a57	-0.062733345
164	0x3d96fe2d	0.07372699
165	0xbd85d6af	-0.06535088
166	0xbe3b0875	-0.18264945
167	0x3d0c473f	0.034247633
168	0xbc8d3c3d	-0.017240638
169	0xbd3aaeb1	-0.045576755
170	0x3cab9600	0.020945549
171	0xbdc2e136	-0.09515612
172	0x3e26ad9b	0.16277163
173	0x3d4a09db	0.049325805
174	0x3e3e7238	0.18598258
175	0x3db30139	0.087404676
176	0x3cc54216	0.024079364
177	0xbab6a691	-0.0013935139
178	0xbd1ce86c	-0.038307592
179	0x3dd61e4f	0.10455
180	0xbd7334af	-0.059376415
181	0x3d020051	0.031738583
182	0xbdb97380	-0.09055233
183	0xbe57c219	-0.21070136
184	0xbbd40b27	-0.006471056
185	0xbd9653c4	-0.07340196
186	0x3cce58ac	0.025188766
187	0x3dd74b49	0.105124064
188	0xbd2c57ff	-0.042076107
189	0xbde0ec06	-0.10982518
190	0x3dc4ce34	0.096096426
191	0xbe0bca5a	-0.1365141
192	0x3d25b9c5	0.040460367
193	0xbd1f4ffc	-0.03889464
194	0x3b37f07a	0.002806692
195	0x3d110068	0.035400778
196	0x3d728a01	0.059213642
197	0xbe155680	-0.14583778
198	0xbdb49e8e	-0.088193044
199	0xbd71d7c8	-0.059043676
200	0xbd9fe1a3	-0.07806709
201	0xbdee5427	-0.116371445
202	0xbd867aa4	-0.065663606
203	0x3df53365	0.11972693
204	0x3d544809	0.05182651
205	0x3c6f4e1e	0.014606027
206	0xbdc5950e	-0.096475706
207	0x3e4d670b	0.20058839
208	0x3d912cd8	0.070886314
209	0x3dc99de5	0.09844569
210	0xbd7dafdd	-0.061935294
211	0x3da92ff5	0.082611
212	0x3d746516	0.059666716
213	0x3d15cb7f	0.036571022
214	0xbca0a687	-0.019610656
215	0x3da80324	0.08203724
216	0xbe38d52a	-0.18050066
217	0xbd0b42e7	-0.03399935
218	0x3e3440ac	0.17602795
219	0xbd67f36a	-0.056628622
220	0x3d98f45a	0.07468481
221	0x3df3a6d4	0.11897054
222	0xbcefb6d5	-0.029261986
223	0xbcc63e4d	-0.02419963
224	0xbd1af3d1	-0.037830178
225	0x3d27406e	0.04083293
226	0x3ca30636	0.019900423
227	0x3da95401	0.082679756
228	0xbcb19fce	-0.021682646
229	0xbc0c76e3	-0.008573267
230	0x3d9a289b	0.07527276
231	0xbe0c8221	-0.13721515
232	0xbd7bfefa	-0.06152246
233	0xbd3b7655	-0.045767147
234	0x3dcb038f	0.09912788
235	0xbca7856e	-0.020449366
236	0xbcf262fb	-0.029588213
237	0x3e3e6d02	0.1859627
238	0x3d976e50	0.07394087
239	0x3d720847	0.059089925
240	0x3db95e2a	0.090511635
241	0xbdb7f9b2	-0.089831725
242	0xbd321d2f	-0.043484863
243	0x3e6c8d29	0.23100723
244	0x3d0c31ab	0.034227055
245	0xbdf2d7a3	-0.11857536
246	0x3d931a1e	0.07182716
247	0x3e420084	0.18945509
248	0x3dba56cc	0.090985864
249	0x3d973eee	0.0738505
250	0x3a6895b0	0.0008872403
251	0xbd869428	-0.06571227
252	0xbd7af5de	-0.061269633
253	0x3e0ef2f3	0.13959865
254	0x3d1342b0	0.03595227
255	0xbdb35c40	-0.0875783

sequential/dense_1/MatMul f4 [10, 64]
0	0x3d5db450	0.054127038
1	0xbe1080a1	-0.14111568
2	0xbdeeba30	-0.11656606
3	0xbeaa68f7	-0.33283207
4	0x3d2bac7a	0.041912533
5	0x3e7db929	0.24777664
6	0xbddf35ea	-0.10898955
7	0xbddde74a	-0.108351305
8	0x3d85ace0	0.06527114
9	0xbd9f068b	-0.0776492
10	0x3e7b5934	0.24545747
11	0xbdfab548	-0.12241608
12	0xbdd8cbaf	-0.105857246
13	0xbe9bb275	-0.3040959
14	0x3e21dfa3	0.15807967
15	0xbecec6ad	-0.40385953
16	0x3eb20663	0.34770498
17	0x3de0d50c	0.109781355
18	0xbdbf7481	-0.09348393
19	0x3e8b4d5d	0.2720746
20	0x3e8c1498	0.27359462
21	0xbe403b97	-0.18772732
22	0x3e3537af	0.17697023
23	0xb9bd55d6	-0.00036112842
24	0xbe427e0d	-0.18993397
25	0xbd2bb336	-0.041918956
26	0xbe0a259e	-0.13490912
27	0x3e6d3dac	0.23168057
28	0x3e805125	0.25061908
29	0x3b154d96	0.002278184
30	0xbe6ca4aa	-0.2310969
31	0x3c9eccbf	0.01938474
32	0xbc649db8	-0.013953619
33	0xbe1b1c00	-0.151474
34	0x3e8fce1b	0.28086933
35	0x3e8124b8	0.25223327
36	0xbdf57a19	-0.11986179
37	0xbcfecb19	-0.031102704
38	0x3e3589dd	0.17728372
39	0xbe8df1d5	-0.27723566
40	0xbdc5dc87	-0.09661203
41	0xbe454382	-0.19264033
42	0xbeafdc69	-0.34347847
43	0xbe86b828	-0.26312375
44	0xbd00096d	-0.03125899
45	0x3e69c1c3	0.2282782
46	0x3e820a12	0.25398308
47	0x3e2c54fa	0.16829291
48	0x3e95f062	0.2928496
49	0xbe828a49	-0.25496128
50	0xbd5706f6	-0.052496873
51	0x3e2d7788	0.16940129
52	0xbe25efe3	-0.16204791
53	0x3bdbc77c	0.00670713
54	0x3e00865f	0.12551259
55	0x3c945106	0.018105041
56	0xbe29c664	-0.16579586
57	0xbd32d9a3	-0.043664586
58	0xbd4964d3	-0.04916842
59	0xbebf1222	-0.37318522
60	0xbe0858ca	-0.1331512
61	0x3e7738e6	0.24142799
62	0xbe48a1c0	-0.19592953
63	0xbcaf7012	-0.021415744
64	0x3e885f50	0.26635218
65	0xbeeb1a0e	-0.45918316
66	0x3e76b65d	0.24093004
67	0xbe8970b2	-0.26843792
68	0x3e53a502	0.20668414
69	0xbefaef17	-0.49010536
70	0x3ab1c685	0.0013563192
71	0x3e8e0277	0.27736256
72	0x3d139cf5	0.036038358
73	0xbeb33147	-0.34998533
74	0xbeddcd35	-0.43320623
75	0xbe2a2bda	-0.1661829
76	0x3d81dfa1	0.06341482
77	0xbdcba522	-0.09943606
78	0x3e29ec62	0.16594079
79	0xbe23c3ac	-0.15992612
80	0xbe575364	-0.21027905
81	0x3eacf8cc	0.33783567
82	0x3e86cee6	0.26329726
83	0xbe8ca9af	-0.27473208
84	0xbf075347	-0.52861446
85	0xbd03a95f	-0.032143947
86	0xbe13dbd0	-0.1443932
87	0xbdf23689	-0.11826808
88	0xbf0890d3	-0.53345984
89	0x3d710ab4	0.058848098
90	0x3d851837	0.06498759
91	0x3c1bf126	0.0095179435
92	0xbe7f8355	-0.24952443
93	0x3da9267a	0.08259292
94	0xbea093fb	-0.313629
95	0x3e5d3d90	0.21605515
96	0x3ea1fc88	0.3163798
97	0xbd585ec9	-0.05282477
98	0xbef402d8	-0.4765842
99	0x3e9720f3	0.29517326
100	0xbe595ff0	-0.21228004
101	0xbe976c9b	-0.29575047
102	0xbdcb6ce8	-0.099328816
103	0xbeb93e04	-0.36180127
104	0xbd7bb909	-0.06145576
105	0xbeca0a86	-0.39461154
106	0xbed18330	-0.409204
107	0x3e17e0ad	0.14831801
108	0xbea2a2b3	-0.31764755
109	0xbf051c0a	-0.5199591
110	0xbe1b9391	-0.15193011
111	0x3e1f9638	0.15584648
112	0x3dff4f6d	0.12466321
113	0x3eae4aeb	0.34041533
114	0x3e2a4964	0.16629559
115	0x3d0bebf9	0.034160588
116	0x3dbfc7c3	0.093642734
117	0x3d26c71b	0.040717226
118	0xbe556d08	-0.20842373
119	0xbd5d6e75	-0.05406042
120	0xbee095d3	-0.43864307
121	0xbf09d5f3	-0.53842086
122	0xbe66cd8c	-0.22539347
123	0x3e14bd10	0.14525247
124	0x3e0add16	0.135609
125	0x3df269ce	0.11836587
126	0xbef728e0	-0.48273373
127	0x3ebc9ba6	0.368375
128	0xbe17dcd9	-0.1483034
129	0x3e9f0c4c	0.3106407
130	0xbdfd8f04	-0.12380794
131	0xbdbd962a	-0.09257157
132	0x3c2e0f35	0.010623743
133	0xbe2410a2	-0.1602197
134	0x3d554f39	0.052077506
135	0xbe6a4cd5	-0.22880872
136	0xbe5915cb	-0.2119972
137	0xbe98b887	-0.29828283
138	0xbe9ec1ec	-0.31007326
139	0xbe3cef54	-0.18450671
140	0x3e479a1b	0.1949238
141	0x3e03808b	0.12842004
142	0x3c046e81	0.008082987
143	0x3e29c52e	0.16579124
144	0x3cd6379b	0.026149562
145	0xbde4420e	-0.111454114
146	0x3e1aadbb	0.15105335
147	0xbdaa1ece	-0.08306657
148	0x3e3d2ee3	0.18474917
149	0x3e392173	0.18079166
150	0xbcea9702	-0.02863646
151	0x3e509a21	0.20371296
152	0x3e41c18d	0.1892149
153	0x3de81ca0	0.11333585
154	0xbe7fca6c	-0.24979562
155	0xbe15350e	-0.1457102
156	0xbcd22a05	-0.025654802
157	0x3e0eec51	0.13957335
158	0x3e2fde94	0.1717475
159	0x3e5fc1b4	0.21851236
160	0xbe2c7f86	-0.16845521
161	0xbe67f456	-0.226518
162	0x3dc97900	0.09837532
163	0x3e16e83b	0.14737026
164	0xbe9a945e	-0.3019132
165	0xbe9dd555	-0.30826822
166	0xbe867b47	-0.26265928
167	0x3e843cef	0.2582774
168	0xbed0cd6b	-0.4078172
169	0x3e04fdaf	0.12987398
170	0xbdf01281	-0.11722279
171	0xbe885715	-0.26628938
172	0x3e649247	0.22321425
173	0xbcc3d733	-0.023906326
174	0x3e2f3a8d	0.17112179
175	0xbe411168	-0.18854296
176	0xbc3d8a2d	-0.011568588
177	0x3e874e52	0.2642694
178	0xbd2706da	-0.04077802
179	0x3e824e0a	0.25450164
180	0x3e697cec	0.2280156
181	0xbe21ddc0	-0.15807247
182	0x3ea0dbcc	0.31417692
183	0x3d37ebd0	0.044902623
184	0x3e35b2a4	0.17743927
185	0xbcac3aec	-0.02102419
186	0xbe462568	-0.19350207
187	0x3e513584	0.20430571
188	0xbe89305a	-0.26794702
189	0xbedfdac7	-0.437216
190	0xbe8304f8	-0.25589728
191	0xbe7c3aa1	-0.2463174
192	0x3ea63944	0.32465565
193	0x3e0674ba	0.13130465
194	0xbd4f4fc4	-0.05061318
195	0x3e3de840	0.18545628
196	0x3e309c59	0.17247142
197	0x3e4b5e65	0.19860227
198	0xbe93ad68	-0.28843236
199	0x3ce63224	0.02810008
200	0x3e94bf90	0.290524
201	0x3e8ad1b8	0.27113128
202	0xbf19188b	-0.59803075
203	0xbe407c55	-0.18797429
204	0x3df02158	0.1172511
205	0xbdf960b6	-0.12176649
206	0xbc8c90e5	-0.017158935
207	0x3e363c8a	0.17796531
208	0x3e19f4e7	0.15034829
209	0xbd2bb37c	-0.041919217
210	0xbe4a1314	-0.1973384
211	0xbec9d9cd	-0.3942398
212	0x3db94964	0.09047201
213	0x3e98dafe	0.29854578
214	0xbde9f8cc	-0.11424407
215	0xbdc13b99	-0.094351955
216	0xbf0def22	-0.5544301
217	0xbcdc259f	-0.026873408
218	0xbd53d70a	-0.05171875
219	0xbd7606f8	-0.06006524
220	0xbeb18528	-0.34671903
221	0xbeaf10d4	-0.34192526
222	0x3e47b76d	0.19503565
223	0x3e8623e3	0.26199254
224	0xbd721ae7	-0.059107687
225	0x3e4461a7	0.19177876
226	0xbe23b33d	-0.15986343
227	0x3e5a1d06	0.21300134
228	0xbee38192	-0.44434792
229	0x3e29c77b	0.16580002
230	0xbe8abb25	-0.27095905
231	0xbe7fc7ec	-0.24978608
232	0x3c8f398b	0.017483493
233	0xbec691e7	-0.3878319
234	0x3e20425c	0.15650314
235	0x3ce27f5e	0.027648624
236	0x3e622875	0.22085746
237	0xbe4658a4	-0.19369751
238	0x3e722ec9	0.2365066
239	0x3e448f95	0.19195397
240	0xbeb5d213	-0.35511836
241	0xbe8f1a2c	-0.27949655
242	0xbe8c98c4	-0.274603
243	0xbe0b8c87	-0.13627826
244	0x3e5131ff	0.20429228
245	0xbe6562e7	-0.2240101
246	0xbed47abc	-0.4149989
247	0xbcb3fef6	-0.02197216
248	0xbe097fdb	-0.13427679
249	0xbe86a5c1	-0.26298335
250	0xbddfb747	-0.10923629
251	0x3e74b053	0.23895387
252	0x3e1b8981	0.15189172
253	0xbc9df99f	-0.019284068
254	0xbe935c4f	-0.28781363
255	0xbd9d63de	-0.07685064

sequential/conv2d/Conv2D f4 [32, 3, 3, 1]
0	0x3d7671e3	0.060167205
1	0xbde73d3f	-0.11290979
2	0x3e1903de	0.14942881
3	0xbe88f74e	-0.26751179
4	0xbe60d87c	-0.21957582
5	0xbd94c4bd	-0.07264087
6	0x3dca6549	0.098826
7	0x3e8dde63	0.2770873
8	0x3d59c630	0.053167522
9	0xbe21d3a4	-0.1580339
10	0xbe906f27	-0.28209803
11	0xbe12eda9	-0.14348473
12	0x3d426611	0.04746062
13	0x3dd202bc	0.10254428
14	0xbd3ea1db	-0.046541076
15	0x3e1783b9	0.14796342
16	0x3c4019b4	0.011724878
17	0x3e5c7bb7	0.21531568
18	0x3e72822f	0.23682474
19	0x3d7062f7	0.05868813
20	0xbe53e3b2	-0.20692328
21	0xbe2bbf2b	-0.16772144
22	0xbd9984db	-0.07496043
23	0x3e8079e3	0.25092992
24	0xbf4644d8	-0.774488
25	0xbe02de4e	-0.12780115
26	0x3cdf579b	0.027263453
27	0x3e693237	0.22773062
28	0xbdb87358	-0.09006375
29	0x3db4d930	0.08830488
30	0x3d67e32d	0.056613136
31	0xbe0ecd9f	-0.13945626
32	0xbe52891c	-0.20560116
33	0xbe8ed8c5	-0.27899757
34	0x3e969a53	0.29414615
35	0x3dfbd3e1	0.12296272
36	0xbe649b80	-0.22324944
37	0xbd770323	-0.060305726
38	0xbe4434c9	-0.19160761
39	0x3d4761e7	0.04867735
40	0x3e582210	0.21106744
41	0xbddf6d8d	-0.10909567
42	0x3c8f5baf	0.017499773
43	0x3d992894	0.07478443
44	0x3e1765af	0.14784883
45	0x3c869699	0.016429232
46	0x3e0e48b7	0.13894926
47	0xbd2a1123	-0.04152025
48	0x3dd937d8	0.106063545
49	0x3e14222f	0.14466165
50	0xbd24d4d4	-0.04024203
51	0xbca430f6	-0.020042878
52	0x3d9ed5d8	0.07755631
53	0x3cf4e127	0.029892517
54	0x3d9201e9	0.071292706
55	0x3d9736db	0.0738351
56	0xbe397c52	-0.1811383
57	0x3df3a24f	0.11896192
58	0x3cec52e8	0.028848127
59	0xbe009b77	-0.12559305
60	0x3dfc9e65	0.12334899
61	0xbdd6ac1a	-0.104820445
62	0xbd3826a0	-0.04495871
63	0xbe2cc9a9	-0.16873802
64	0x3df13a09	0.117786475
65	0x3d9f484c	0.077774614
66	0xbd7386cf	-0.059454735
67	0x3e7a2780	0.2442913
68	0xbe3496f0	-0.17635703
69	0xbe455950	-0.19272351
70	0x3e4d35ec	0.20040101
71	0xbce85661	-0.028361501
72	0x3d80815f	0.062746756
73	0x3e8539d1	0.26020673
74	0x3cca8aff	0.024724482
75	0x3d30b0b7	0.04313728
76	0xbe3b8735	-0.18313296
77	0xbd47cd2c	-0.04877965
78	0x3db61018	0.088897884
79	0xbe04ae2c	-0.12957066
80	0xbd7fb2cd	-0.062426377
81	0x3c8c9d1a	0.017164756
82	0x3df5ed88	0.12008196
83	0x3d4f684b	0.05063657
84	0x3c1f6ead	0.009730977
85	0x3e0a78f2	0.135227
86	0x3e3f1961	0.18662025
87	0xbe856d34	-0.26059878
88	0xbe0945e2	-0.13405564
89	0xbe16d484	-0.14729506
90	0x3e377289	0.17914785
91	0x3e5a1a42	0.21299079
92	0x3d6e9c0f	0.058254298
93	0xbe121262	-0.14264825
94	0xbde450e9	-0.11148245
95	0x3d40128d	0.04689269
96	0xbde789d5	-0.11305586
97	0xbd3eae2c	-0.046552822
98	0xbdba3dce	-0.090938196
99	0x3d7ffd44	0.062497392
100	0xbd919229	-0.07107956
101	0x3d86b6bf	0.06577825
102	0x3cbbf8e8	0.022945836
103	0x3bf32240	0.0074198544
104	0x3cbfa54d	0.023394251
105	0x3e0e2314	0.13880569
106	0xbe4f8336	-0.20264897
107	0xbe1716ac	-0.14754742
108	0x3db45471	0.088051684
109	0xbde31687	-0.11088281
110	0x3d104e93	0.035231184
111	0x3e97e657	0.29667923
112	0xbe6f2510	-0.23353982
113	0xbd6c1de2	-0.057645686
114	0x3e833080	0.2562294
115	0xbe963a63	-0.2934142
116	0x3ca54ad4	0.020177282
117	0x3caeac37	0.021322353
118	0x3e2a5a26	0.16635951
119	0x3dbf04d1	0.093270905
120	0x3e076534	0.132222
121	0x3e1ddb37	0.15415655
122	0x3d3a6328	0.04550472
123	0xbe4ea179	-0.20178784
124	0xbe95bb26	-0.29244345
125	0xbe8467f5	-0.25860563
126	0x3ea4bfc7	0.32177565
127	0xbda49c18	-0.08037585
128	0xbe906f2f	-0.28209826
129	0xbd8e9d6a	-0.06963618
130	0x3ddf1a35	0.108936705
131	0x3d115641	0.03548265
132	0xbe83591b	-0.2565392
133	0xbc4d5b50	-0.012533978
134	0x3e5dcad5	0.21659406
135	0x3da3e1fd	0.08002088
136	0xbd8901ee	-0.06689821
137	0xbeb9c901	-0.36286166
138	0x3e566509	0.2093698
139	0x3da64547	0.08118682
140	0xbdddd99c	-0.10832521
141	0x3d97d1cd	0.07413063
142	0x3e5de231	0.21668316
143	0xbe29f4b8	-0.16597259
144	0x3d9ca0c8	0.07647854
145	0x3e559447	0.20857345
146	0x3e0f219c	0.13977665
147	0xbd74fafd	-0.059809674
148	0x3cbe7ad4	0.023251928
149	0x3e25c4e3	0.16188388
150	0xbe15cd76	-0.14629158
151	0xbe788f9b	-0.24273531
152	0xbdfa0dba	-0.122096494
153	0xbf9325be	-1.1495893
154	0xbfa722b6	-1.3057468
155	0xbdd0f2d7	-0.10202568
156	0xbeb4a9e3	-0.35285863
157	0xbf3cf742	-0.73814785
158	0xbdfe945f	-0.12430643
159	0x3dd461bc	0.10370204
160	0x3da207c8	0.079116404
161	0x3de1a79a	0.110182956
162	0xbefe0195	-0.49610582
163	0xbf86ac61	-1.0521356
164	0xbf868b12	-1.0511191
165	0x3e335598	0.1751312
166	0xbe285e05	-0.16442116
167	0xbe986d1c	-0.29770744
168	0x3e39ae21	0.18132831
169	0xbc6fa308	-0.014626272
170	0x3d69dc1a	0.05709467
171	0x3e47a99e	0.19498298
172	0x3e488e75	0.19585593
173	0xbe290b7f	-0.16508292
174	0x3ebcae50	0.3685174
175	0xbebc2425	-0.36746326
176	0xbf2248ea	-0.6339251
177	0xbe89abad	-0.2688879
178	0xbea6253a	-0.32450277
179	0xbf0c47b4	-0.5479691
180	0xbe0c0e11	-0.13677241
181	0x3da4c4d2	0.08045353
182	0x3da1124b	0.07864817
183	0x3e14e785	0.14541443
184	0xbe280355	-0.16407521
185	0xbc987944	-0.018612511
186	0xbdb66373	-0.08905687
187	0x3de4551e	0.11149047
188	0xbe0b9c25	-0.13633783
189	0xbda90435	-0.082527556
190	0xbd7f337f	-0.06230497
191	0xbeb011d7	-0.3438861
192	0x3d57c29d	0.052675832
193	0x3c9ac2bf	0.01889169
194	0x3e7a2402	0.24427798
195	0x3ca0321b	0.019555142
196	0xbd5253b1	-0.051349346
197	0x3db94b7c	0.090476006
198	0xbde99b0f	-0.11406528
199	0x3e8a8be1	0.27059844
200	0xbe79a7b8	-0.24380386
201	0x3d6d9719	0.058005426
202	0xbcf2827c	-0.029603235
203	0x3da927a7	0.08259516
204	0xbe2e0dba	-0.16997424
205	0x3dc1d03e	0.09463547
206	0x3d9d2d89	0.07674701
207	0xbf23c308	-0.6396947
208	0xbf31cfd4	-0.69457746
209	0xbe8f8dfb	-0.2803801
210	0xbc1d096d	-0.009584767
211	0x3d4eaf3d	0.05046009
212	0x3e3f2595	0.1866668
213	0x3d8c13ff	0.068397515
214	0xbd4deeae	-0.05027645
215	0x3e2c227a	0.16810027
216	0xbdcc0af6	-0.09963028
217	0xbe3bcfb3	-0.1834095
218	0x3e5efc4a	0.21775928
219	0xbe903f74	-0.2817341
220	0x3df77d28	0.120844185
221	0x3dec795d	0.11546586
222	0x3e173eb3	0.14770012
223	0x3dadb637	0.0848202
224	0xbe2edd16	-0.17076525
225	0x3de5ad2e	0.11214672
226	0xbe01094c	-0.12601203
227	0x3e4d303b	0.2003793
228	0xbce3e91e	-0.02782112
229	0xbdecfe9a	-0.11571999
230	0x3dd2de58	0.10296315
231	0xbdad5fb3	-0.08465519
232	0xbe6620d6	-0.22473463
233	0x3de1b26c	0.110203594
234	0xbb23d455	-0.0024998386
235	0xbe415656	-0.18880591
236	0x3dfd736a	0.12375529
237	0xbe238199	-0.15967406
238	0x3e0a8ceb	0.13530318
239	0x3d490734	0.049079135
240	0x3dd33a70	0.103138804
241	0x3c82967d	0.015940899
242	0xbe50bf17	-0.20385395
243	0x3c5291f7	0.012852184
244	0x3dbeb392	0.09311594
245	0xbe2320d4	-0.15930492
246	0x3d8891df	0.06668448
247	0xbe20528d	-0.1565649
248	0xbf3455b1	-0.70443255
249	0x3c9fd7cf	0.019512085
250	0xbe25fb6d	-0.16209193
251	0xbf37f752	-0.71861756
252	0xbe6513b6	-0.223708
253	0x3ae65caa	0.0017575223
254	0x3e2b2997	0.16715084
255	0x3dfdc614	0.12391296

sequential/conv2d_1/Conv2D f4 [64, 3, 3, 32]
0	0xbe66f6ad	-0.22555037
1	0xbe2f067b	-0.17092316
2	0x3d33b03d	0.043869246
3	0xbe6172e6	-0.22016487
4	0xbe364de6	-0.17803153
5	0xbcf668aa	-0.030079205
6	0x3c1594e7	0.009129739
7	0x3d28ff08	0.04125884
8	0x3c86480c	0.016391777
9	0xbd802d92	-0.06258692
10	0x3d9628d1	0.07332004
11	0xbc999f86	-0.018752825
12	0x3d4fdc9d	0.050747503
13	0x3ccf5260	0.025307834
14	0xbe751049	-0.23931994
15	0xbdd09b3c	-0.101858586
16	0xbbdf1583	-0.0068079843
17	0x3daf42c6	0.08557658
18	0x3e47177b	0.19442551
19	0x3e88226d	0.26588765
20	0xbb8ec882	-0.0043573985
21	0xbebd9539	-0.3702791
22	0xbdec4811	-0.11537183
23	0xbdca901e	-0.098907694
24	0xbe4f03dc	-0.20216316
25	0x3c667090	0.014064923
26	0xbe1031ad	-0.1408145
27	0x3e0b3ca5	0.13597353
28	0xbd30611d	-0.043061364
29	0xbe41e620	-0.18935442
30	0xbd30fca9	-0.043209706
31	0xbe2b2c39	-0.16716088
32	0xbe8d1e23	-0.27562055
33	0xbe55635c	-0.20838684
34	0x3c43470c	0.011918794
35	0xbe9082ff	-0.28224942
36	0xbdf61f93	-0.12017741
37	0xbe1ddbd0	-0.15415883
38	0xbd4ae9c2	-0.049539335
39	0xbd7a2195	-0.061067183
40	0x3d77cfeb	0.06050102
41	0x3cf73361	0.030175867
42	0xbd5e68d0	-0.054299176
43	0x3c86eac9	0.016469376
44	0xbd90435a	-0.07044096
45	0xbe028f79	-0.12750043
46	0xbe273cb0	-0.16331744
47	0xbe8e94f6	-0.27848023
48	0xbbc25dda	-0.005931598
49	0x3e5fbb1c	0.2184872
50	0x3e317029	0.17327942
51	0x3d272023	0.040802132
52	0xbe1d3421	-0.15351917
53	0xbdb92f0f	-0.09042179
54	0x3d062e54	0.032759026
55	0xbc054a7a	-0.008135432
56	0xbdcab3de	-0.09897588
57	0x3e128839	0.14309777
58	0xbd791a37	-0.060816016
59	0x3e605db9	0.21910752
60	0xbe0cdc94	-0.13756019
61	0xbdb3da31	-0.08781851
62	0xbc8d90f8	-0.01728104
63	0xbcddb5f6	-0.027064305
64	0xbd8c9901	-0.06865121
65	0xbd7019aa	-0.058618225
66	0x3e238f3e	0.15972611
67	0xbe216933	-0.15762787
68	0x3e16ff96	0.14745936
69	0x3d093e57	0.033506718
70	0x3d74cba1	0.05976451
71	0x3d8c712d	0.06857524
72	0x3d800ed0	0.06252825
73	0x3dd75713	0.10514655
74	0x3d97faa1	0.074208505
75	0x3d653339	0.055957053
76	0x3d9735b9	0.07383294
77	0x3c8ee29b	0.017442038
78	0xbdabb0ae	-0.08383308
79	0x3e140a91	0.14457156
80	0x3d488592	0.048955508
81	0x3dff5bdd	0.124686934
82	0xbd9d6de6	-0.07686977
83	0xbe2916a4	-0.16512543
84	0xbd88ae3a	-0.06673856
85	0x3a8ba3dd	0.0010653693
86	0xbd0cdf1e	-0.03439247
87	0xbdd65427	-0.104652695
88	0xb9f3270e	-0.0004637767
89	0x3be61fde	0.007022842
90	0x3d40674a	0.046973504
91	0xbddc110c	-0.10745439
92	0x3db6718e	0.089083776
93	0x3dcf231e	0.1011412
94	0xbe49aa00	-0.19693756
95	0xbc0a0b41	-0.008425535
96	0xbd527979	-0.051385377
97	0xbd0a1de9	-0.03371993
98	0xbdbca46d	-0.09211049
99	0xbb7429f2	-0.0037256447
100	0x3d92f5dc	0.071758
101	0xbd82b5ac	-0.063823074
102	0x3c7c5edd	0.015403477
103	0xbe29ed25	-0.1659437
104	0xbdd946e8	-0.106092274
105	0xbdf03e3e	-0.11730622
106	0xbe0ac04a	-0.13549915
107	0xbcf53bb1	-0.02993569
108	0x3c10cf2b	0.008838455
109	0xbe25a858	-0.161775
110	0xbc8f409e	-0.017486867
111	0x3bf90a76	0.007600124
112	0xbe7ff7e9	-0.24996914
113	0x3e202ca5	0.1564203
114	0x3e49fadc	0.19724602
115	0x3e79ab69	0.24381794
116	0xbdfc5f1f	-0.123228304
117	0x3b1d2159	0.0023976176
118	0xbc1d2972	-0.009592401
119	0xbbc3e0a8	-0.005977709
120	0xbe18774a	-0.14889255
121	0xbdff8e31	-0.12478293
122	0xbdcd11ea	-0.100131825
123	0x3e1977dc	0.14987129
124	0xbe5d4fe2	-0.21612504
125	0xbe5a9ff2	-0.21350077
126	0xbe16e676	-0.14736351
127	0xbe9652ba	-0.2935999
128	0xbc90d07f	-0.017677544
129	0x3d681698	0.056662172
130	0x3e186dd1	0.14885642
131	0x3ca8ac65	0.020590017
132	0x3d1b262e	0.037878208
133	0xbd9c4953	-0.07631173
134	0xbe0ae5d6	-0.13564238
135	0xbdcf6c9c	-0.101281375
136	0xbe542400	-0.20716858
137	0xbce5b9e3	-0.02804274
138	0xbe4496b4	-0.19198114
139	0xbd600ae7	-0.054697897
140	0xbd49076e	-0.04907935
141	0xbde4b4e6	-0.11167316
142	0xbe05581e	-0.13021895
143	0xbcb8600f	-0.022506742
144	0xbe073155	-0.13202412
145	0x3ea1dbf6	0.3161313
146	0x3e82fbc5	0.2558271
147	0x3dceabe1	0.10091377
148	0xbdf20a90	-0.11818421
149	0xbdf4f495	-0.11960713
150	0xbe1e4597	-0.15456234
151	0x3a8b6e1d	0.0010637675
152	0x3df636ef	0.120221965
153	0x3da85c61	0.08220745
154	0xbd5ed7b0	-0.054404914
155	0x3dabffeb	0.08398422
156	0xbd63a899	-0.05558071
157	0x3c77cb17	0.015124104
158	0x3e0339b3	0.1281498
159	0x3dd7fc9e	0.1054623
160	0x3d2781ac	0.04089515
161	0xbddf7c5c	-0.109123915
162	0xbd7fe193	-0.062470984
163	0x3e19dbc2	0.15025237
164	0x3e19a35c	0.15003723
165	0x3da4f51a	0.08054562
166	0x3dbb10cd	0.09134064
167	0x3da47668	0.08030397
168	0x3e6b51a6	0.22980365
169	0xbc1781b1	-0.009247229
170	0xbd726627	-0.05917945
171	0x3da9ae61	0.08285213
172	0x3d0eeda3	0.034894597
173	0x3e604c32	0.21904066
174	0xbc3101d6	-0.01080366
175	0x3e66ebbb	0.22550862
176	0x3cbd8121	0.023132863
177	0x3d3511d0	0.04420644
178	0xbdb7bc54	-0.089714676
179	0x3d0af6f0	0.033926904
180	0x3dd0827c	0.10181138
181	0x3d2e9a64	0.042627707
182	0x3df0c4aa	0.11756261
183	0x3d00b411	0.031421725
184	0x3caa12a5	0.020760844
185	0xbd1f72b7	-0.03892776
186	0x3dee7d83	0.11645033
187	0xbdb523ba	-0.08844705
188	0x3ddb0c22	0.106956735
189	0xbd2e39b8	-0.042535514
190	0x3e2dc93a	0.16971293
191	0xbc91d32a	-0.017800886
192	0x3d3a97e7	0.04555502
193	0x3d931095	0.07180897
194	0x3cc48936	0.023991209
195	0xbe0897ab	-0.13339107
196	0xbcf2c8a7	-0.029636694
197	0x3d127e00	0.035764694
198	0xbcf3e5b1	-0.029772611
199	0xbb0bd58c	-0.0021337
200	0xbd33dae7	-0.043909933
201	0x3d098f5c	0.033583984
202	0xbd61de44	-0.05514361
203	0xbdf62141	-0.120180614
204	0xbdbc75d7	-0.09202164
205	0xbdf8ff32	-0.1215805
206	0xbdc48601	-0.09595872
207	0xbb835f3f	-0.004009157
208	0xbdbe5832	-0.09294166
209	0x3b0212ea	0.00198477
210	0x3d8a6ddf	0.067592375
211	0x3d856d21	0.06514955
212	0x3d275c34	0.040859416
213	0xbd068100	-0.032837868
214	0xbe0b68ce	-0.13614199
215	0xbd7979ab	-0.060907047
216	0xbe0be20d	-0.1366045
217	0xbdd9a408	-0.106269896
218	0xbe285242	-0.16437629
219	0x3d99af4d	0.07504139
220	0xbe1615a2	-0.1465669
221	0xbc92c968	-0.017918304
222	0xbe058868	-0.13040316
223	0xbdfb7d6d	-0.122797824
224	0xbdba0f96	-0.09085004
225	0x3d1c28c7	0.038124826
226	0x3c824cc5	0.015905747
227	0xbe0d8993	-0.13822012
228	0xbd5dc78c	-0.05414538
229	0xbdd67c56	-0.10472934
230	0x3dafc01a	0.08581562
231	0xbdfb3408	-0.122657835
232	0xbd81dac5	-0.06340555
233	0xbce7693c	-0.028248422
234	0xbd51c307	-0.051211383
235	0x3c2885c8	0.010285802
236	0x3cf17085	0.029472599
237	0xbe02f653	-0.12789278
238	0xbe3a5991	-0.1819823
239	0x3d98757d	0.07444284
240	0xbe0db5f0	-0.13838935
241	0x3e11a384	0.14222533
242	0x3cc60fbb	0.024177423
243	0x3df4f517	0.1196081
244	0xbca34eb5	-0.019934991
245	0xbd8df0e2	-0.069307104
246	0xbe1b398c	-0.15158671
247	0xbdbbe028	-0.09173614
248	0xbdca286e	-0.098709926
249	0x3d9f0dc0	0.077662945
250	0xbe07dc68	-0.13267672
251	0xbd36ccc5	-0.044628877
252	0x3da926d5	0.0825936
253	0xbb50e2ca	-0.0031873458
254	0xbb90c5a4	-0.004418092
255	0x3c1c7b5c	0.009550896

sequential/conv2d_2/Conv2D f4 [64, 3, 3, 64]
0	0xbd9a985b	-0.07548591
1	0x3e07bb46	0.13255033
2	0xbd69b526	-0.057057522
3	0xbd9b70fd	-0.0758991
4	0xbc507b99	-0.0127247805
5	0x3cc9c84d	0.024631644
6	0xbd5d644a	-0.05405072
7	0x3d46cab0	0.04853314
8	0x3d83df6f	0.06439101
9	0xbd228b3d	-0.03968357
10	0xbd526756	-0.05136808
11	0xbd3f37b1	-0.04668397
12	0xbdb4721c	-0.08810827
13	0xbe8d7fe4	-0.27636635
14	0x3d963a86	0.07335381
15	0x3cd420ce	0.025894549
16	0xbd557221	-0.052110795
17	0xbe30a681	-0.17251016
18	0x3c10d490	0.008839741
19	0x3db64e65	0.08901671
20	0x3c7a8af1	0.015291915
21	0x3daef1fe	0.0854225
22	0x3d8525f8	0.065013826
23	0xbda67d0c	-0.081293195
24	0x3d007c39	0.031368468
25	0x3c301835	0.010747959
26	0x3e2681e2	0.16260484
27	0xbd87fd90	-0.0664016
28	0xbcf24803	-0.029575353
29	0x3d81c732	0.063368216
30	0xbe24ea3c	-0.16104978
31	0x3d434d07	0.04768088
32	0xbe3f286d	-0.18667765
33	0x3e3a83c0	0.18214321
34	0xbd14c16c	-0.036317274
35	0x3c634896	0.013872286
36	0xbda2d643	-0.079510234
37	0x3cdb0e23	0.02674014
38	0x3dbe3bff	0.09288787
39	0xbe0f73e0	-0.14009047
40	0x3e0cb400	0.1374054
41	0x3e1b5e14	0.15172607
42	0xbc237c0f	-0.009978308
43	0x3e44fa89	0.19236197
44	0xbcad267a	-0.021136511
45	0xbdd92fd8	-0.106048286
46	0xbe32db5f	-0.17466496
47	0x3dca6330	0.098822
48	0xbd117511	-0.035512034
49	0xbeb03188	-0.3441279
50	0x3e3ff900	0.1874733
51	0x3c081362	0.0083054025
52	0xbe3b7de9	-0.1830975
53	0x3dfc48da	0.12318583
54	0x3c9d253e	0.019182798
55	0xbe298142	-0.16553214
56	0xbdb53b24	-0.08849171
57	0x3e412890	0.1886313
58	0x3c8f130f	0.017465143
59	0xbd36fa76	-0.044672452
60	0xbe24a48d	-0.16078396
61	0x3da5f587	0.08103471
62	0xbbaa1ea1	-0.0051916395
63	0xbe774bdf	-0.24150036
64	0xbe9d333e	-0.30703157
65	0xbdb729fc	-0.08943555
66	0x3d9e6288	0.07733637
67	0xbe22ff41	-0.15917684
68	0xbe4b5963	-0.19858317
69	0x3e48eb7c	0.1962108
70	0xbdfb24a4	-0.12262848
71	0x3db747c0	0.08949232
72	0x3da40581	0.08008862
73	0xbd6c5617	-0.05769929
74	0xbc867cb0	-0.016416878
75	0xbd51ee4a	-0.05125264
76	0x3b2d05a8	0.0026401076
77	0xbe323870	-0.17404342
78	0xbe256fd7	-0.16155945
79	0x3e033429	0.12812866
80	0xbddf79f9	-0.10911936
81	0xbdfda880	-0.123856544
82	0xbdfb1905	-0.122606315
83	0x3d7ee641	0.062231306
84	0xbe16a62a	-0.14711824
85	0xbdc5da8f	-0.09660827
86	0xbe546dd3	-0.2074502
87	0xbe2d2d91	-0.16911913
88	0x3d9840cd	0.07434235
89	0xbda5cb5f	-0.080954306
90	0x3dcf5087	0.10122781
91	0xbe214dd0	-0.1575234
92	0x3cf6782c	0.0300866
93	0xbd9b1b4e	-0.07573567
94	0xbe205628	-0.15657866
95	0x3d8d2daa	0.06893475
96	0xbd360b81	-0.044444565
97	0xbdf128ab	-0.11775335
98	0x3d9e352b	0.07724985
99	0x3c961e35	0.01832495
100	0x3d303757	0.043021526
101	0x3e151255	0.14557774
102	0x3c85a8ac	0.01631578
103	0xbd80e368	-0.06293374
104	0x3d407d42	0.046994455
105	0x3e67e570	0.22646117
106	0xbdfca59f	-0.12336277
107	0x3a49da79	0.00077000965
108	0xbc1f2375	-0.009713043
109	0x3e60bc56	0.21946844
110	0xbdc6c139	-0.09704823
111	0x3d91ab2f	0.07112729
112	0xbe4b32f1	-0.19843651
113	0xbcdeb33b	-0.027185073
114	0xbdc157ea	-0.094405964
115	0xbe671102	-0.22565082
116	0xbdc3a6e0	-0.09553313
117	0x3e1501b7	0.14551435
118	0xbd35514d	-0.044266988
119	0xbeea2664	-0.45732415
120	0xbe3da968	-0.18521655
121	0xbda54962	-0.08070637
122	0x3b86f277	0.0041182595
123	0xbd84b630	-0.06480062
124	0xbe3ac0e4	-0.18237644
125	0xbe48c1b0	-0.19605136
126	0xbd227927	-0.03966632
127	0x3dbfee35	0.09371606
128	0x3de60398	0.11231154
129	0xbdf6e072	-0.12054528
130	0x3d166f9d	0.036727536
131	0xbcf1876d	-0.029483521
132	0x3d670b35	0.056407172
133	0x3dd3a3f1	0.10334004
134	0xbe7a9e56	-0.24474463
135	0xbddf065f	-0.10889887
136	0x3da6c20c	0.0814248
137	0xbeb1a8a3	-0.34698972
138	0x3e123ed8	0.14281785
139	0x3de17225	0.110080995
140	0x3e09ebd2	0.13468865
141	0x3d900b55	0.070334114
142	0xbe389bbe	-0.18028161
143	0xbdbd336e	-0.09238325
144	0x3d67c337	0.056582656
145	0xbcbd972a	-0.02314337
146	0x3d5a27c4	0.05326058
147	0xbdf932a3	-0.12167861
148	0xbd4f3a61	-0.050592784
149	0xbde35604	-0.111003906
150	0xbca39a64	-0.01997108
151	0xbd382cdc	-0.044964656
152	0x3dae071d	0.084974505
153	0xbe4692d3	-0.19391946
154	0xbd1625e8	-0.036657244
155	0xbd32e84b	-0.043678563
156	0x3d2ac436	0.041691028
157	0xbcdfcfaa	-0.027320702
158	0x3da4288e	0.08015548
159	0x3df05fcd	0.117370225
160	0x3d7b7a7a	0.0613961
161	0xbd020cf2	-0.031750627
162	0xbd9aae42	-0.07552768
163	0xbd5232c2	-0.051317938
164	0x3e38cb6f	0.18046354
165	0xbe209d99	-0.15685119
166	0x3c1ec466	0.00969038
167	0x3c19559a	0.009358788
168	0xbd99bf9b	-0.07507249
169	0xbda86ee3	-0.08224275
170	0xbc9f6cef	-0.019461123
171	0xbdde6ebc	-0.10860965
172	0xbcbb0d07	-0.02283336
173	0x3ee02267	0.43776247
174	0x3ddc0904	0.10743907
175	0x3dfe7649	0.12424905
176	0xbc53348a	-0.012890944
177	0x3d070fe9	0.032974157
178	0xbc9ae710	-0.018909007
179	0x3db46f03	0.08810236
180	0x3d2a9577	0.041646447
181	0x3d3dece5	0.0463685
182	0x3c9ce65d	0.019152815
183	0x3d54ad0a	0.051922835
184	0xbd59d7a1	-0.053184155
185	0x3bda100f	0.0066547464
186	0xbd2a50a9	-0.04158083
187	0x3e1387dd	0.14407296
188	0xbd93b415	-0.07212082
189	0xbd4e5eb0	-0.05038327
190	0xbd070b23	-0.032969605
191	0x3c24cc90	0.010058537
192	0x3dfb2d49	0.12264497
193	0xbcc38115	-0.023865262
194	0xbd92958e	-0.071574315
195	0xbda428c8	-0.08015591
196	0x3e1951f9	0.14972676
197	0xbe6abc4a	-0.22923389
198	0x3dae248a	0.08503063
199	0x3c538b12	0.012911575
200	0xbddb60d8	-0.10711831
201	0x3e6ed875	0.2332476
202	0xbca6b72a	-0.020351011
203	0x3d17c02d	0.037048507
204	0xbd80ccce	-0.062890634
205	0xbe193848	-0.14962876
206	0x3da2b15d	0.079439856
207	0xbdadd5dd	-0.08488057
208	0xbe042fe8	-0.129089
209	0xbe030b5d	-0.12797303
210	0x3e4a3ec4	0.19750506
211	0x3dc257da	0.094894126
212	0x3e248816	0.16067538
213	0x3dbb4c96	0.09145467
214	0x3df38f2d	0.11892543
215	0xbe2dc14c	-0.16968268
216	0xbdddfa3b	-0.10838743
217	0x3e2b2aba	0.16715518
218	0x3d844999	0.0645935
219	0x3d6d213e	0.05789303
220	0x3e55767c	0.2084598
221	0x3d3c44b7	0.04596397
222	0xbe046b9a	-0.12931672
223	0x3d1ac7b3	0.037788104
224	0xbd1453d9	-0.036212776
225	0x3beed9dc	0.0072891545
226	0x3dbdf64d	0.09275494
227	0x3d245898	0.040123552
228	0xbd194e89	-0.037428413
229	0x3cc658c1	0.024212243
230	0x3d9185f1	0.071056254
231	0xbe1f4867	-0.15554963
232	0x3e2d4977	0.16922556
233	0xbd39c2ba	-0.04535172
234	0xbea7ae65	-0.3275024
235	0xbe3f0d67	-0.18657456
236	0xbd95ac53	-0.07308259
237	0x3ce15dd6	0.027510565
238	0xbe098636	-0.13430104
239	0x3d0772a6	0.03306832
240	0x3df269f6	0.11836617
241	0xbe44d610	-0.19222283
242	0x3dce1646	0.10062842
243	0xbb9d99c5	-0.0048095905
244	0xbc77793c	-0.015104588
245	0xbc4b3421	-0.012402565
246	0x39e93914	0.0004448375
247	0x3ddac7af	0.10682618
248	0x3e15ca12	0.14627865
249	0xbd6635a8	-0.056203514
250	0x3dae5ecd	0.085141756
251	0xbe207c4e	-0.15672418
252	0xbdc93878	-0.09825224
253	0x3d6a1af7	0.057154622
254	0x3dedf361	0.116186865
255	0xbe01e854	-0.12686282
