Week13/keras_model_cnn.tflite (tflite, 377096 bytes, 10 tensors)

sequential/dense/BiasAdd/ReadVariableOp f4 [64]
0	0xbcc8d2f0	-0.024514645
1	0x3b83dc88	0.004024092
2	0x3db679e9	0.08909971
3	0x3dddd1e4	0.10831049
4	0x3d6536b1	0.05596036
5	0xbc84caf6	-0.01621006
6	0x3db2741d	0.08713553
7	0x3d26d39a	0.040729143
8	0xbd24fe3d	-0.040281523
9	0xbd32e912	-0.043679304
10	0x3bcb9f4a	0.006214057
11	0xbd119074	-0.03553815
12	0x3cb30ad6	0.021855753
13	0x3cee2e04	0.029074676
14	0x3cd648ad	0.026157701
15	0xbd4d8282	-0.05017329
16	0xbbc7cbfa	-0.006097314
17	0x3d3eb985	0.046563644
18	0xbccfadce	-0.025351431
19	0x3d22ad59	0.0397161
20	0xbd6d6c4b	-0.057964604
21	0x3bcaffae	0.00619503
22	0x3b5abf53	0.0033378198
23	0x3cda61b9	0.026657926
24	0x3d3c8ff0	0.046035707
25	0x3d94d1fb	0.07266613
26	0xbc6ffbd0	-0.014647439
27	0x3d8975ec	0.06711945
28	0xbc6c7460	-0.014432043
29	0xbdb305ec	-0.08741364
30	0xbd7955a6	-0.060872696
31	0x3c6d94fc	0.014500853
32	0x3d2210db	0.039566856
33	0x3c3bca95	0.011461874
34	0xbd12649e	-0.035740487
35	0x3c610cd6	0.0137359705
36	0xbc633fdf	-0.0138702085
37	0xbd0c08db	-0.034188133
38	0x3d04e487	0.032444503
39	0xbda49b82	-0.08037473
40	0x3bbfcfc8	0.005853627
41	0x3cf48151	0.02984682
42	0xbd748bce	-0.05970364
43	0xbc3095fe	-0.010777948
44	0xbc7014c7	-0.014653391
45	0x3be4e399	0.0069851396
46	0xbbdb4b93	-0.0066923588
47	0xbc1049c8	-0.008806653
48	0xbd671c0d	-0.056423236
49	0x3d2e65fe	0.042577736
50	0x3d203b3f	0.039119
51	0x3b1cc91c	0.0023923581
52	0x3d0c7cbd	0.034298647
53	0x3cd7bb32	0.026334379
54	0x3d56971f	0.052390214
55	0xbdd914c4	-0.10599664
56	0x3c2c9cb7	0.010535411
57	0x3cd9bfea	0.02658077
58	0xbd227b68	-0.03966847
59	0x3d591eba	0.05300782
60	0x3c9c9a8d	0.019116664
61	0xbbe1d126	-0.0068913875
62	0xbd659599	-0.05605087
63	0x3b6d869e	0.0036243568

sequential/dense_1/BiasAdd/ReadVariableOp f4 [10]
0	0x3c966f9c	0.018363766
1	0x3d08e1f6	0.03341862
2	0xbd4db68c	-0.05022292
3	0xbbc706fa	-0.0060738297
4	0xbb48bda1	-0.0030630606
5	0xbc5d3b86	-0.013502961
6	0xbda6c27f	-0.08142566
7	0x3d120476	0.035648786
8	0x3dbdb2e6	0.09262638
9	0xbd39b57a	-0.045339085

sequential/conv2d/BiasAdd/ReadVariableOp f4 [32]
0	0xbbaaf9b0	-0.0052177534
1	0x3c3bae9b	0.011455203
2	0xbdb6f771	-0.089339145
3	0xbdb2055b	-0.08692428
4	0xbdfbdfba	-0.12298532
5	0xbdc44e38	-0.095852315
6	0xbba54560	-0.0050436705
7	0xbd9f94ff	-0.077920906
8	0xbd3c774a	-0.0460122
9	0xbe2875b8	-0.16451156
10	0xbdd22a03	-0.10261919
11	0x3d91ff4e	0.07128774
12	0xbdd47a12	-0.103748456
13	0xbdf50748	-0.119642794
14	0xbe1c0ade	-0.1523852
15	0xbb9f9d74	-0.004871065
16	0x3d1a6979	0.037698243
17	0xbc118c84	-0.008883599
18	0xbe273473	-0.16328602
19	0xbcdc3a65	-0.026883313
20	0xbe30b431	-0.17256238
21	0xbbe3a34d	-0.006946957
22	0xbca486b0	-0.020083755
23	0xbe1e4d60	-0.15459204
24	0x3c73df50	0.014884785
25	0xbddb53ab	-0.10709318
26	0xb88052a8	-6.1189116e-05
27	0xbd5562d9	-0.05209622
28	0xbd92998e	-0.071581945
29	0xbe20ed26	-0.15715465
30	0xbcf47b80	-0.029844046
31	0x3cf7d741	0.030254008

sequential/conv2d_2/BiasAdd/ReadVariableOp f4 [64]
0	0x3ab1d60e	0.0013567822
1	0xbd142d24	-0.036175862
2	0xbc0a7952	-0.008451777
3	0x3a6ac89e	0.0008956286
4	0xbd4cc557	-0.049992885
5	0xbc7880c5	-0.01516742
6	0xbbea8176	-0.007156546
7	0x3d2a767d	0.041616905
8	0x3d3a2cd5	0.04545291
9	0xbd564cee	-0.05231946
10	0x3cea7357	0.028619451
11	0xbc142ad0	-0.00904341
12	0xbd3cff6d	-0.04614203
13	0xbc88314b	-0.016625067
14	0x3b5da16a	0.0033818134
15	0x3b8f92c3	0.004381509
16	0xbca74825	-0.020420143
17	0xbc70f91b	-0.014707829
18	0xbd330668	-0.04370728
19	0xbc02bfba	-0.0079802815
20	0xbd1234f8	-0.035695046
21	0x3d1469e3	0.036233794
22	0x3aa8f5c0	0.0012890622
23	0x3c250ba8	0.01007358
24	0xbc9bfd25	-0.019041607
25	0x3c800218	0.015625998
26	0x3d2493a8	0.04017988
27	0xbc94e0aa	-0.018173534
28	0x3d897b30	0.06712949
29	0xbc8470c4	-0.016167052
30	0x3d771e07	0.06033137
31	0xbc55d139	-0.013050371
32	0xb937c203	-0.00017524515
33	0x3dc0a657	0.09406727
34	0x3cb73ae1	0.022366943
35	0xbc2d7440	-0.010586798
36	0xbd1e3c9a	-0.038632013
37	0xbc8ae1b2	-0.016953323
38	0xbc279453	-0.010228234
39	0xbd4d721e	-0.05015766
40	0x3c710c19	0.014712357
41	0xbcccdb3f	-0.025006888
42	0x3b8d13b2	0.0043053264
43	0xbd5a48ad	-0.053291965
44	0xbc498c7c	-0.0123015605
45	0x3c7be85f	0.015375226
46	0xbbf8bb57	-0.007590692
47	0xba9b0697	-0.0011827525
48	0xbd82bfb4	-0.06384221
49	0x3caed1f9	0.021340357
50	0xbb43643f	-0.002981439
51	0xbc01d666	-0.007924652
52	0x3cb90a64	0.022587962
53	0x3d21c7c6	0.03949716
54	0xbdae1ba2	-0.08501364
55	0xbcf2233c	-0.029557817
56	0xbd5ec012	-0.05438239
57	0x3c2bf09c	0.010494377
58	0x3c0d0ca5	0.008608972
59	0xbc299b05	-0.010351901
60	0xbccd9e58	-0.025099918
61	0x3cc82fb8	0.024436817
62	0x3c73ab8e	0.014872445
63	0xbd13f0c2	-0.036118276

sequential/conv2d_1/BiasAdd/ReadVariableOp f4 [64]
0	0xbd02dba4	-0.031947747
1	0xbcbbd8c1	-0.022930505
2	0xbd9674f9	-0.073465295
3	0xbd8edcbd	-0.06975696
4	0xbd616f57	-0.055037823
5	0xbd1a4437	-0.03766271
6	0xbd488eea	-0.04896442
7	0xbd7cae89	-0.061689887
8	0xbd133bfc	-0.035945877
9	0xbcd2f8a2	-0.025753323
10	0x3c30dfb3	0.010795522
11	0xbcd2de79	-0.025740849
12	0xbda59299	-0.08084602
13	0xbdec3916	-0.11534326
14	0xbc8872c2	-0.016656283
15	0xbcf97720	-0.030452311
16	0x3bdc4e6c	0.006723216
17	0xbdce03c3	-0.10059311
18	0xbd337e4e	-0.043821625
19	0xbd77a9e8	-0.06046477
20	0xbd38560b	-0.045003932
21	0x3dd14142	0.10217525
22	0xbd8e211a	-0.06939907
23	0xbc92e7ff	-0.01793289
24	0xbd19a02c	-0.037506267
25	0xbd600f1f	-0.05470192
26	0xbb8876f6	-0.004164572
27	0xbcf3ca6b	-0.029759606
28	0xbcdeef87	-0.027213825
29	0xbd1a0d1c	-0.03761016
30	0xbc9f7b0c	-0.019467853
31	0x3cca1934	0.02467022
32	0x3bf61493	0.007509777
33	0xbd457d63	-0.04821528
34	0xbd8759a8	-0.066088974
35	0x3bc2bf43	0.0059432103
36	0xbcae1cf1	-0.021254035
37	0xbc5778de	-0.013151376
38	0xbd66dbe8	-0.056362063
39	0xbcdf4cd9	-0.027258324
40	0xbc9027d0	-0.01759711
41	0xbd87463e	-0.066051945
42	0x3cfef3b7	0.031122072
43	0xbd4187c5	-0.04724862
44	0x3aba279f	0.0014202482
45	0xbd13aca8	-0.03605333
46	0x3cafe78d	0.021472717
47	0xbdaf55a9	-0.0856126
48	0xbd3f0af5	-0.04664131
49	0x3d119f97	0.035552587
50	0x3d5671bf	0.05235457
51	0xbdb90efb	-0.090360604
52	0xbd5421e9	-0.05179015
53	0xbd30d7e9	-0.043174658
54	0xbca47d0c	-0.020079158
55	0xbd21be7e	-0.039488308
56	0xbda86f71	-0.08224381
57	0xbc90dcd5	-0.017683426
58	0xbdaf8dda	-0.08571978
59	0xbd9266a9	-0.07148487
60	0xbd8e27c8	-0.069411814
61	0xbc11c42b	-0.008896868
62	0xbd40d445	-0.047077436
63	0xbcbaac5f	-0.022787271

sequential/dense/MatMul f4 [64, 576]
0	0xbc993f95	-0.018707076
1	0xbcdaa468	-0.026689723
2	0x3c11e491	0.008904592
3	0x3d3059a8	0.043054253
4	0xbd2a25a3	-0.0415398
5	0xbdd52ac0	-0.104085445
6	0x3d1d645b	0.038425785
7	0xbda43fa5	-0.08019952
8	0xbda8bb09	-0.08238799
9	0x3d6e7d71	0.0582251
10	0x3bd3d586	0.006464663
11	0xbc5937ab	-0.013257901
12	0xbd5e5791	-0.05428273
13	0xbdcca9ad	-0.099933006
14	0xbcd557dd	-0.026042873
15	0xbdf7823d	-0.12085388
16	0x3c0c61e2	0.008568259
17	0x3d473c42	0.04864145
18	0xbd10304c	-0.03520231
19	0xbd9733b5	-0.07382909
20	0xbde1ce03	-0.11025622
21	0x3c28ae63	0.010295483
22	0x3d1971a6	0.0374619
23	0x3d4528cf	0.04813462
24	0xbc539027	-0.012912787
25	0x3d99d1d8	0.07510728
26	0x3d7b541f	0.06135952
27	0xbd952e48	-0.07284218
28	0xbcf293a4	-0.029611416
29	0x3d254622	0.040350087
30	0xbdbb2227	-0.091373734
31	0xbcbfe8ba	-0.023426402
32	0x3d6cbcb3	0.057797145
33	0x3d93a6a1	0.07209516
34	0x3d7b2a38	0.06131956
35	0xbd87b2d2	-0.06625904
36	0xbe0ac991	-0.13553454
37	0xbdb67d5b	-0.089106284
38	0x3ce9e572	0.02855179
39	0xbd907086	-0.07052712
40	0xbd7aeaf0	-0.06125921
41	0xbdc2a7a8	-0.09504634
42	0x3d35272f	0.04422682
43	0xbc53eab8	-0.012934379
44	0x3cebc7c0	0.028781772
45	0xbd36bbdc	-0.04461275
46	0x3c93038c	0.017946027
47	0x3ba97456	0.005171339
48	0x3d15b90c	0.036553428
49	0x3c9d893c	0.019230478
50	0xbb1f62c0	-0.0024320334
51	0xbce6ed8c	-0.028189443
52	0x3d1eeb25	0.03879847
53	0x3d5aebfb	0.053447705
54	0xbda8ada5	-0.08236245
55	0xbc607171	-0.013698922
56	0x3ce72c5b	0.028219393
57	0xbddb31dc	-0.10702869
58	0xbd358fb9	-0.044326518
59	0x3d106b3d	0.03525852
60	0xbcaa69a0	-0.020802319
61	0x3c8bc419	0.01706128
62	0xbc8e67ea	-0.017383534
63	0xbd312ef6	-0.043257676
64	0xbd3e75c8	-0.046499044
65	0x3da00884	0.07814124
66	0xbc33e85b	-0.010980691
67	0xbda39f99	-0.07989425
68	0xbdc464ff	-0.09589576
69	0xbd52458d	-0.05133586
70	0xbd71dc27	-0.059047844
71	0xbcd4de76	-0.025984984
72	0xbd7e333e	-0.062060587
73	0xbd59dd00	-0.053189278
74	0xbd4d7d03	-0.05016805
75	0x3d5cf018	0.05393991
76	0xbd757b70	-0.059932172
77	0x3d09f3a9	0.033679638
78	0x3d7d4688	0.061834842
79	0xbd6006e6	-0.05469408
80	0x3bf770cc	0.007551288
81	0xbd580f73	-0.05274911
82	0x3b9d3537	0.0047976035
83	0x3cb63995	0.022244254
84	0xbcb23d48	-0.021757737
85	0xbdfdfcbb	-0.1240172
86	0xbce3798b	-0.027767917
87	0x3cfc4326	0.030793738
88	0x3c49d657	0.012319169
89	0xbdb4f096	-0.088349506
90	0xbd9451b3	-0.072421454
91	0x3d74cb18	0.059763998
92	0xbdcd7519	-0.100321
93	0x3d036736	0.03208085
94	0xbc819397	-0.015817447
95	0xbc4b8a3e	-0.012423096
96	0xbd8296df	-0.063764326
97	0xbccc7588	-0.024958387
98	0xbdb2b51d	-0.08725951
99	0xbd3938ba	-0.045220114
100	0x3d731d2e	0.059354
101	0x3d44de5c	0.04806362
102	0x3d92afec	0.07162461
103	0xbcd893d8	-0.026437685
104	0xbb3bccc0	-0.0028655976
105	0xbd7a9813	-0.061180186
106	0xbd491532	-0.04909248
107	0x3dbc2e0c	0.0918847
108	0x3d95cdd0	0.07314646
109	0xbde15109	-0.11001784
110	0xbd7a8a02	-0.06116677
111	0xbd9bfa47	-0.07616096
112	0xbdb9e182	-0.09076215
113	0xbd7cf954	-0.061761215
114	0xbda2f3a7	-0.07956629
115	0xbd4d5522	-0.050130017
116	0xbde81da5	-0.11333779
117	0xbdebe49d	-0.11518214
118	0x3d89c5ee	0.06727205
119	0x3d9d5113	0.07681479
120	0x3c916180	0.017746687
121	0xbd9381a0	-0.072024584
122	0xbc6ae03e	-0.01433569
123	0xbcb00a9e	-0.021489438
124	0x3da9d136	0.08291857
125	0xbd72fd57	-0.059323635
126	0x3c9eabeb	0.019369086
127	0xbca1fda8	-0.019774273
128	0x3b899634	0.004198814
129	0xbc8b713a	-0.017021764
130	0xbc4abfcb	-0.012374829
131	0xbd5c94ba	-0.053852774
132	0x3d5b9078	0.053604573
133	0xbdda4de9	-0.106593914
134	0xbd8c0201	-0.0683632
135	0x3c61e413	0.013787287
136	0xbda78d12	-0.08181204
137	0xbc9a9773	-0.018871045
138	0x3d26e718	0.040747732
139	0x3ca005b1	0.019533964
140	0xbc8fc5fc	-0.017550461
141	0x3c8ceb77	0.017202122
142	0x3d47943a	0.048725344
143	0xbdc411e4	-0.09573725
144	0xbcbb1b28	-0.022840098
145	0x3b22f535	0.0024865393
146	0xbcc61f39	-0.02418481
147	0xbc54cefe	-0.012988804
148	0x3c9ebff9	0.01937865
149	0xbd9a03d8	-0.075202644
150	0x3cacc005	0.021087656
151	0x3bdef0ba	0.006803599
152	0xbd2048cf	-0.039131936
153	0x3d99dcd5	0.075128235
154	0x3b56cdc0	0.0032776445
155	0xbc6f18a0	-0.014593273
156	0xbcaa6cee	-0.020803895
157	0xbca65058	-0.020301983
158	0xbc79b989	-0.015241989
159	0xbbc08060	-0.0058746785
160	0xbe06515a	-0.1311697
161	0x3db34e5c	0.0875518
162	0xbd3ca68b	-0.046057265
163	0xbc81709c	-0.015800767
164	0x3d595f90	0.05306965
165	0xbd45f82b	-0.048332375
166	0xbddc224a	-0.107487276
167	0xbdc1eb58	-0.094687164
168	0x3cd70590	0.02624777
169	0xbdb45c95	-0.08806721
170	0x3d864c54	0.06557527
171	0x3d2979f4	0.04137607
172	0xbd155fe1	-0.03646839
173	0xbdb01238	-0.08597225
174	0xbcc86426	-0.024461817
175	0xbddb4f5e	-0.107084975
176	0xbc94a5a8	-0.018145397
177	0x3d944def	0.07241427
178	0x3d18c3c6	0.03729608
179	0x3da8166c	0.08207402
180	0xbdc3f81b	-0.09568807
181	0xbb68fe11	-0.0035551826
182	0x3d78c474	0.060734227
183	0xbd34e31e	-0.04416191
184	0x3cec67bd	0.02885806
185	0xbd5dfd62	-0.054196723
186	0xbc4a6674	-0.012353528
187	0xbd6b1268	-0.0573906
188	0xbd0c37bc	-0.03423284
189	0x3da34dee	0.07973848
190	0xbbe9229a	-0.0071147205
191	0xbe01a9e5	-0.12662466
192	0xbdb85262	-0.09000088
193	0xbd8344ef	-0.064096324
194	0xbcbf9477	-0.023386223
195	0xbce0a79c	-0.027423672
196	0xbc0b5c36	-0.0085058715
197	0xbda9d88b	-0.082932554
198	0xbd709a60	-0.058740973
199	0xbd94186e	-0.07231222
200	0x3d97f3e5	0.07419566
201	0x3d5dd89c	0.054161653
202	0x3d248564	0.040166274
203	0x3d6b7b78	0.057490796
204	0xbd21d7fd	-0.039512623
205	0xbd3e7c78	-0.04650542
206	0xbceeaf1f	-0.029136239
207	0x3c23b7b7	0.0099925315
208	0x3d55e0fe	0.052216522
209	0xbdefb3a4	-0.117041856
210	0xbdc39446	-0.09549765
211	0x3a83e65f	0.0010063163
212	0xbafa6e13	-0.0019106291
213	0x3d2a01bf	0.04150557
214	0xbdcdecdd	-0.10054944
215	0x3ce815cd	0.028330708
216	0x3a909a8c	0.0011032387
217	0xbd0eb422	-0.034839757
218	0xbd8e5c6f	-0.06951224
219	0x3c4bd6d8	0.012441359
220	0xbdd0285b	-0.10163947
221	0xbc9e9d75	-0.01936219
222	0x3d77301a	0.060348608
223	0x3d410baf	0.047130283
224	0xbd752eb6	-0.059859
225	0x3d404885	0.04694416
226	0x3c8d0591	0.017214568
227	0xbda41895	-0.08012501
228	0x3c52f759	0.012876355
229	0x3dc0c6f6	0.09412949
230	0x3d05720b	0.032579463
231	0x3dbd5ffa	0.09246822
232	0x38e4c7c3	0.00010909096
233	0x3d58abc8	0.0528982
234	0x3dbda546	0.09260039
235	0x3cb1bd2c	0.02169665
236	0x3cd6e3e6	0.026231717
237	0x3d5607a9	0.0522534
238	0xbd80a270	-0.062809825
239	0xbdea232d	-0.114324905
240	0xbd41e5e0	-0.047338367
241	0x3d29154a	0.04128007
242	0xbdd0c3de	-0.10193609
243	0xbdb862ca	-0.090032175
244	0xbdd5cd1a	-0.10439511
245	0xbda54ba8	-0.08071071
246	0xbd7a0012	-0.061035223
247	0xbd9658f2	-0.07341184
248	0xbd819aaa	-0.06328328
249	0xbbc9788b	-0.006148403
250	0xbca8816f	-0.020569531
251	0xbd9f5006	-0.07778935
252	0x3b147dc0	0.002265796
253	0xbdb01f79	-0.08599753
254	0x3d5143b5	0.05108996
255	0xbd49fff0	-0.049316347

sequential/dense_1/MatMul f4 [10, 64]
0	0xbd8d4302	-0.06897546
1	0xbdc3d717	-0.095625095
2	0xbeda0cde	-0.42587942
3	0xbeada69c	-0.33916175
4	0x3e73fcab	0.23826854
5	0xbdba8632	-0.09107627
6	0x3dede873	0.11616602
7	0x3e5ee973	0.21768741
8	0xbc2db0bf	-0.010601222
9	0x3ea80fc3	0.32824525
10	0xbe264d8d	-0.16240521
11	0xbe76cbdb	-0.24101202
12	0xbe83b28c	-0.25722158
13	0x3d368bfa	0.044567086
14	0x3e2a4f2e	0.16631767
15	0x3e8301ed	0.25587407
16	0x3e310f41	0.17290975
17	0xbe153d67	-0.14574204
18	0x3e39e16f	0.18152402
19	0xbdb7b796	-0.08970563
20	0x3e6e3f1a	0.23266259
21	0x3da8740a	0.08225258
22	0x3eb0eb86	0.3455469
23	0xbe67b485	-0.22627456
24	0xbe14faa8	-0.14548743
25	0xbe2886e5	-0.16457708
26	0xbe88ad69	-0.266948
27	0xbd75a1b7	-0.059968676
28	0xbe51550f	-0.20442604
29	0xbdea7958	-0.11448926
30	0xbd44a1d3	-0.04800589
31	0xbddca785	-0.10774139
32	0xbe777a5a	-0.24167767
33	0xbe889e33	-0.26683196
34	0x3ebb6f3a	0.36608297
35	0x3e8b77a6	0.27239722
36	0xbe3fa05e	-0.18713519
37	0xbd22c5ce	-0.039739423
38	0xbe864e90	-0.26231813
39	0x3d16fa7c	0.036859974
40	0xbe8e35cc	-0.2777542
41	0xbe04c9e6	-0.12967643
42	0xbd64fc8b	-0.055904906
43	0x3e11f479	0.14253415
44	0xbd8daf4f	-0.06918203
45	0xbeac94a7	-0.33707163
46	0x3dea35b5	0.11436025
47	0x3e0ae82f	0.13565134
48	0xbdf52d5d	-0.11971543
49	0xbed1db2a	-0.4098752
50	0x3e33d6ed	0.17562456
51	0x3e1f8177	0.1557673
52	0x3d4168c4	0.047219053
53	0xbdeea3fc	-0.11652371
54	0xbc86aecb	-0.01644077
55	0xbd8d657e	-0.06904124
56	0xbe2039e1	-0.15647079
57	0xbdb15b85	-0.08660034
58	0xbc97e148	-0.01854004
59	0x3e15764b	0.14595906
60	0x3e080a39	0.1328515
61	0xbe5cd71c	-0.21566433
62	0xbe21fd41	-0.15819265
63	0xbe9e2fd8	-0.30895877
64	0x3dac43f6	0.084114
65	0xbe2fd763	-0.17172007
66	0x3e7b0291	0.24512698
67	0x3e02d3e6	0.12776145
68	0xbe93a15e	-0.2883405
69	0xbe2126af	-0.15737413
70	0x3bd1c29f	0.0064013745
71	0xbdef881f	-0.11695885
72	0x3e3a65de	0.18202922
73	0x3d55c9a4	0.052194253
74	0x3d7a5439	0.061115477
75	0xbdb0b4ed	-0.08628259
76	0xbc398a3b	-0.011324461
77	0x3ec8d3f2	0.392242
78	0x3dd6fcdd	0.104974486
79	0x3c07778e	0.00826825
80	0xbf0f185c	-0.55896544
81	0x3dcd366a	0.10020144
82	0xbebe92e1	-0.37221435
83	0xbdd70d55	-0.1050059
84	0xbe5153b9	-0.20442094
85	0x3d95df4f	0.07317983
86	0x3cbf57d4	0.02335731
87	0x3e7459ba	0.23862353
88	0x3d7eae98	0.062178224
89	0xbe8f0990	-0.27936983
90	0x3d2ae5d5	0.04172309
91	0xbe309a6c	-0.17246407
92	0xbe776469	-0.24159397
93	0xbe982e3d	-0.29722777
94	0x3e37ef55	0.17962392
95	0xbea20bbf	-0.31649587
96	0xbccc267b	-0.024920693
97	0x3bc0f255	0.005888263
98	0xbe3bd156	-0.18341574
99	0x3e74193e	0.23837754
100	0xbe15a03d	-0.14611907
101	0xbe8de806	-0.27716082
102	0xbc7132e3	-0.014721605
103	0xbde2ceaa	-0.11074574
104	0x3e932355	0.28737894
105	0x3e242e08	0.16033185
106	0xbe3cb414	-0.1842807
107	0xbe67c572	-0.22633913
108	0xbed4e380	-0.4157982
109	0x3dd4c663	0.10389402
110	0xbe54d5d8	-0.207847
111	0x3ceece2b	0.029151043
112	0xbcc7ec16	-0.024404567
113	0xbe266fd0	-0.1625359
114	0x3e925bf0	0.28585768
115	0xbdd41854	-0.10356203
116	0x3d31ffa4	0.04345669
117	0x3dadba4b	0.08482798
118	0xbe518fd0	-0.20465016
119	0xbc9907e3	-0.018680518
120	0x3e0f46e4	0.13991886
121	0x3e8e2787	0.27764532
122	0xbe1b2a65	-0.15152891
123	0xbd938a02	-0.07204057
124	0xbddba6fb	-0.10725208
125	0xbe457772	-0.19283846
126	0xbe511148	-0.20416749
127	0x3da03caa	0.07824071
128	0xbdcb93ef	-0.099403255
129	0x3e7df891	0.24801852
130	0x3dbe793c	0.09300467
131	0xbdcfc789	-0.1014548
132	0xbdf0fae1	-0.11766601
133	0x3dc581d2	0.09643902
134	0x3dc0df8b	0.094176374
135	0x3d3804c4	0.04492642
136	0xbe870423	-0.26370344
137	0x3e5c61d7	0.21521698
138	0xbe867908	-0.26264215
139	0x3c349e7a	0.011024112
140	0x3e60ea8e	0.21964476
141	0xbe8a8b56	-0.2705943
142	0xbe27c118	-0.16382253
143	0x3caecb58	0.021337196
144	0xbee84aac	-0.4536947
145	0xbdebb3d4	-0.11508909
146	0x3eb76528	0.35819364
147	0xbea1dc6d	-0.31613484
148	0xbdff7f4e	-0.12475453
149	0xbce8bf32	-0.028411482
150	0xbe9bf99b	-0.3046387
151	0x3da7f9b2	0.082019225
152	0xbeb7568a	-0.35808212
153	0xbe9916d3	-0.29900226
154	0xbe6f3345	-0.23359402
155	0x3b04559d	0.002019263
156	0x3d88fabd	0.066884495
157	0xbe754817	-0.23953281
158	0xbe35b867	-0.17746125
159	0x3e2ab583	0.16670804
160	0x3e48c9b5	0.19608195
161	0x3ce0da13	0.027447736
162	0x3e5289b0	0.20560336
163	0x3dcab9b6	0.09898703
164	0x3c441248	0.011967249
165	0x3e4dc543	0.2009478
166	0x3deeb36f	0.11655318
167	0x3e29fbfc	0.1660003
168	0x3da9dbdb	0.08293887
169	0xbe08d274	-0.13361531
170	0xbcaa4fb4	-0.020789959
171	0x3eb64fa4	0.35607636
172	0x3e8f7d62	0.28025347
173	0xbe87a357	-0.26491806
174	0x3e363bab	0.17796199
175	0xbe057210	-0.13031793
176	0x3e6ffb1e	0.23435637
177	0x3e680360	0.22657537
178	0x3b6ff546	0.00366147
179	0x3e52ca7a	0.20585051
180	0xbcd1d61e	-0.025614794
181	0xbe6ba0e5	-0.23010595
182	0x3dbb14ea	0.091348484
183	0xbe7fc81b	-0.24978678
184	0x3e1f7466	0.15571746
185	0x3e4201cc	0.18945998
186	0x3bd3028c	0.0064395126
187	0x3e0a7cc8	0.13524163
188	0xbd8b7cdc	-0.068109244
189	0x3d85c5b8	0.065318525
190	0xbeb0a53b	-0.3450106
191	0x3e034db3	0.12822609
192	0x3d02d042	0.03193689
193	0xbd885a12	-0.066578045
194	0x3ddda96f	0.108233325
195	0xbd3fb264	-0.046800986
196	0xbde81d96	-0.11333768
197	0xbebddd09	-0.370827
198	0xbdc67d49	-0.09691865
199	0x3eccd3b8	0.4000528
200	0x3e5ebd7c	0.2175197
201	0xbeac6468	-0.33670354
202	0x3e874d52	0.26426178
203	0x3de8e138	0.11371082
204	0x3e91e893	0.28497753
205	0xbef1088f	-0.47076842
206	0x3e001482	0.12507823
207	0x3e23e953	0.16006975
208	0x3dfa806f	0.12231528
209	0xbe92e27a	-0.28688413
210	0xbdc4415e	-0.0958278
211	0xbe26841a	-0.1626133
212	0x3de2f528	0.11081916
213	0xbe2db1d5	-0.16962369
214	0xbeb0456d	-0.34427968
215	0xbe67a15c	-0.22620147
216	0xb94376d0	-0.0001864091
217	0x3e8b5d4c	0.27219617
218	0x3e273412	0.16328457
219	0x3e41e098	0.18933332
220	0xbe1e90e2	-0.15484956
221	0x3d7b3832	0.06133289
222	0xbd875a79	-0.06609053
223	0x3e638ebb	0.22222416
224	0x3e24016c	0.16016167
225	0x3e2617fe	0.1622009
226	0xbe2e5d02	-0.17027667
227	0x3e370b77	0.17875467
228	0xbe8b6b5b	-0.27230343
229	0x3e9ecca9	0.31015518
230	0xbe918fe6	-0.28430098
231	0xbe0df543	-0.13863091
232	0xbe831c0f	-0.25607345
233	0x3c20a5e2	0.009805175
234	0x3d9b446d	0.075814106
235	0xbe552874	-0.20816213
236	0xbe74dcd3	-0.23912363
237	0x3e244242	0.160409
238	0x3e467901	0.19382097
239	0x3e144608	0.1447984
240	0xbe8be007	-0.27319357
241	0x3e5661c2	0.20935729
242	0x3e3f46e9	0.18679394
243	0xbe9a47ca	-0.30132896
244	0xbea14f5b	-0.31505856
245	0xbe54bf7d	-0.20776172
246	0x3e3b4bb8	0.18290603
247	0xbefb7140	-0.4910984
248	0xbe335e3a	-0.17516413
249	0xbee8a9d2	-0.45442063
250	0x3e46d66d	0.19417734
251	0x3dc348e5	0.09535388
252	0x3dd7944a	0.10526331
253	0x3e40e2df	0.18836544
254	0xbf087882	-0.5330888
255	0x3e3090b4	0.172427

sequential/conv2d/Conv2D f4 [32, 3, 3, 1]
0	0xbe5252c9	-0.20539393
1	0xbe7cc65c	-0.24685043
2	0xbe33ab12	-0.17545727
3	0x3d292463	0.041294467
4	0xbd9f73ef	-0.077857845
5	0x3dbf472d	0.093397476
6	0x3e3f0c66	0.18657073
7	0x3e58a7f2	0.21157816
8	0x3e164581	0.14674951
9	0x3e215cf4	0.15758115
10	0xbee37cee	-0.4443125
11	0xbdbb7509	-0.09153182
12	0xbef11cdf	-0.4709234
13	0xbdcd5295	-0.10025517
14	0x3e66ac82	0.22526744
15	0xbe98985f	-0.2980375
16	0x3dad3658	0.08457631
17	0x3e73c3e0	0.23805189
18	0x3e21938d	0.15778942
19	0xbdcc7a83	-0.09984305
20	0xbded7eb9	-0.11596436
21	0x3df7deba	0.121030286
22	0xbe38d1fa	-0.1804885
23	0xbe7f6204	-0.24939734
24	0x3e218a3d	0.1577539
25	0x3e49516b	0.19659965
26	0x3e55ecf0	0.20891166
27	0x3d5c8ebe	0.053847067
28	0x3e1b2277	0.15149866
29	0xbc8753ef	-0.016519515
30	0x3e08b163	0.13348918
31	0xbdc7a082	-0.09747411
32	0xbe039b90	-0.12852311
33	0xbd1b41bd	-0.03790449
34	0xbcfa2e28	-0.030539587
35	0xbe695d2d	-0.2278945
36	0xbeb7f92c	-0.3593229
37	0xbd8cda3b	-0.06877562
38	0x3dd310fe	0.103059754
39	0x3d89ec6b	0.06734546
40	0x3e96bd92	0.29441506
41	0x3dfa37b4	0.12217656
42	0x3e04d87c	0.12973207
43	0xbd18e409	-0.037326846
44	0xbe84ddfe	-0.25950617
45	0x3c38eac9	0.011286446
46	0x3da32281	0.079655655
47	0xbdaa354e	-0.08310948
48	0xbd9d4ca5	-0.076806344
49	0x3e11ccbe	0.14238259
50	0xbc4269d4	-0.011866052
51	0xbd8cbce4	-0.068719655
52	0x3c96e06c	0.01841756
53	0x3d095524	0.033528462
54	0x3e7622f1	0.24036767
55	0x3d0876b9	0.033316348
56	0xbe8fb810	-0.28070116
57	0x3dc41d5d	0.09575913
58	0x3e36ca00	0.17850494
59	0xbebec205	-0.372574
60	0x3e74cd42	0.23906425
61	0xbc2c367b	-0.010511036
62	0xbe81177b	-0.25213227
63	0xbeb4a2e7	-0.35280535
64	0x3e06d549	0.131673
65	0xbd909be4	-0.07060984
66	0xbdb8b038	-0.09017986
67	0x3e14f397	0.14546047
68	0x3e2ec71b	0.1706814
69	0x3c6fafe7	0.014629341
70	0x3ddce6a5	0.107861795
71	0xbdd7388c	-0.10508832
72	0xbe92d4a5	-0.2867786
73	0xbe182d1a	-0.14860955
74	0x3cef1858	0.029186413
75	0xbe731270	-0.23737502
76	0x3e183d54	0.14867145
77	0x3e879655	0.26481882
78	0xbccb7fbd	-0.024841184
79	0x3d88c33c	0.06677863
80	0xbcda544c	-0.026651524
81	0xbd6f3faa	-0.058410324
82	0x3dfcb578	0.123393
83	0x3ca68e13	0.020331418
84	0x3e039044	0.12848002
85	0x3e15e651	0.1463864
86	0x3c25b94e	0.010114981
87	0xbdfc82a3	-0.123296045
88	0x3de80760	0.11329532
89	0xbdd4fa32	-0.103992835
90	0xbc92efa5	-0.017936537
91	0xbda0791a	-0.07835598
92	0x3c562c22	0.0130720455
93	0xbdf3f53f	-0.11912011
94	0x3e19377c	0.14962572
95	0xbd673bbc	-0.05645345
96	0x3d097366	0.03355732
97	0x3de606a7	0.112317376
98	0x3d8c96ff	0.06864738
99	0x3e7d8038	0.24755943
100	0x3de0c2c2	0.10974647
101	0x3e029bea	0.12754789
102	0x3de02a38	0.109455526
103	0x3daf7b3c	0.08568427
104	0xbd3b1b7a	-0.0456805
105	0xbefd796e	-0.49506706
106	0xbef123a8	-0.47097516
107	0xbee5874f	-0.44829795
108	0x3d89fa58	0.067372024
109	0x3e0efeaa	0.13964334
110	0xbd1e8a0f	-0.03870588
111	0xbe0511f7	-0.12995134
112	0x3e42b2cb	0.19013517
113	0xbd599bdc	-0.053127155
114	0xbe7949d0	-0.24344563
115	0x3d2f6d9d	0.042829145
116	0x3d9842a4	0.07434586
117	0x3e0aefc9	0.13568033
118	0x3d4fd4db	0.050740104
119	0xbd1b074d	-0.03784876
120	0xbd949d71	-0.07256592
121	0x3e63e313	0.2225459
122	0x3dd1525d	0.10220788
123	0xbe8310b9	-0.25598696
124	0xbda09d66	-0.07842521
125	0x3e0433dd	0.1291041
126	0x3ce0a8f5	0.027424315
127	0x3e2d7c14	0.16941863
128	0x3c71e5ca	0.014764259
129	0xbc629807	-0.013830191
130	0x3d6e7c19	0.058223817
131	0xbc3460c8	-0.011009403
132	0xbdd4a3b1	-0.10382784
133	0x3e1a2c19	0.15055884
134	0x3dc420d2	0.095765725
135	0xbe59ad35	-0.2125748
136	0xbe9a8053	-0.3017603
137	0xbe32ea92	-0.17472294
138	0x3dfb8721	0.12281633
139	0xbced87da	-0.028995443
140	0x3e460e11	0.19341303
141	0x3dfc349d	0.12314723
142	0x3e914609	0.28373745
143	0x3b96cf3a	0.00460234
144	0x3def26a0	0.11677289
145	0x3d421bd5	0.047389824
146	0xbd71afca	-0.059005536
147	0x3e2b6319	0.16737022
148	0xbdc34894	-0.095353276
149	0xbeceac6d	-0.40365925
150	0x3e7419bb	0.2383794
151	0x3d65f223	0.056139123
152	0xbe66bc91	-0.2253287
153	0xbdde99c7	-0.108691745
154	0xbd8a9c7f	-0.067681305
155	0xbe8ab9b3	-0.27094802
156	0x3dd09a41	0.101856716
157	0x3bcfcb49	0.006341372
158	0xbd6984b7	-0.057011332
159	0x3dde61ba	0.108584836
160	0x3dd08653	0.1018187
161	0x3e4e7ee0	0.20165586
162	0x3dc0b5b6	0.094096586
163	0xbcff1811	-0.031139405
164	0xbe820b65	-0.25399318
165	0x3dfdc168	0.12390405
166	0x3e004228	0.12525237
167	0xbd55161e	-0.052023046
168	0x3d909516	0.07059686
169	0x3deca7b8	0.11555427
170	0x3e1bc853	0.15213136
171	0x3e29bc41	0.1657572
172	0x3ceeaff3	0.029136634
173	0x3e628f07	0.22124873
174	0x3e5b8fbb	0.21441548
175	0x3e4d0454	0.20021182
176	0xba1501eb	-0.0005684185
177	0xbe0a527b	-0.13508026
178	0xbeab1576	-0.3341481
179	0xbeb73541	-0.35782817
180	0x3d253214	0.04033096
181	0x394ff1d2	0.00019831143
182	0xbc9a2846	-0.018818032
183	0xbd8adb31	-0.06780089
184	0x3db12ee2	0.0865152
185	0x3d3d93cc	0.04628353
186	0x3dbbadb9	0.09163994
187	0xbd6b314e	-0.057420067
188	0x3c5a1fd0	0.013313249
189	0xbd3259cc	-0.04354267
190	0xbe1ce62c	-0.15322179
191	0x3c890839	0.016727554
192	0xbb9edee8	-0.00484835
193	0x3d4b3ed1	0.049620453
194	0xbdb158e3	-0.08659532
195	0x3c9fac35	0.019491294
196	0x3e201456	0.15632758
197	0xbe2719b9	-0.16318406
198	0x3d25e0d4	0.040497616
199	0x3e799bed	0.24375887
200	0x3daf04ae	0.085458145
201	0x3db6e273	0.089299105
202	0xbc14c916	-0.009081146
203	0x3e02b585	0.12764557
204	0xbe9c6fe3	-0.30554113
205	0xbe7888ca	-0.24270931
206	0xbdcf1a25	-0.101124085
207	0x3ce96fbc	0.028495662
208	0xbdc9a7a7	-0.0984643
209	0xbda44bf6	-0.08022301
210	0x3d545510	0.051838934
211	0x3d243743	0.040091764
212	0x3d84d66a	0.06486209
213	0xbd00148c	-0.031269595
214	0xbbe7868f	-0.007065601
215	0x3cde49ad	0.02713474
216	0xbdd0bcd2	-0.101922646
217	0xbc186b3c	-0.00930291
218	0xbd8a2345	-0.067450084
219	0x3e1fe6f6	0.15615448
220	0xbe39df5a	-0.18151608
221	0xbec18c3d	-0.37802306
222	0x3e699ba6	0.22813281
223	0x3e5259cc	0.20542067
224	0x3e0f5b81	0.1399975
225	0x3e00e532	0.12587431
226	0xbe4dfa1d	-0.20114942
227	0x3d99c390	0.07508004
228	0x3d6b27d2	0.057411022
229	0xbe0fcda6	-0.14043292
230	0x3d8d4704	0.06898311
231	0x3dcca04b	0.09991511
232	0x3be0e714	0.006863484
233	0x3e111fd3	0.14172296
234	0xbdcb902f	-0.0993961
235	0xbbc8a706	-0.0061234264
236	0xbe102ea3	-0.1408029
237	0x3dba56e8	0.09098607
238	0x3e1cd476	0.15315422
239	0xbe199857	-0.1499952
240	0xbe34d7f0	-0.17660499
241	0xbd04a493	-0.032383513
242	0x3de89c89	0.11357982
243	0x3d10abac	0.03531997
244	0xbe2255a3	-0.1585298
245	0xbe515145	-0.20441158
246	0x3ddd1d8b	0.107966505
247	0x3e630a98	0.2217201
248	0x3e7a7b19	0.2446102
249	0xbe4b84cc	-0.19874877
250	0xbe329d92	-0.17442921
251	0x3d5eb998	0.054376215
252	0xbe4369c6	-0.19083318
253	0xbd042636	-0.032263003
254	0x3e2cfa4d	0.16892357
255	0xbe93c065	-0.28857723

sequential/conv2d_1/Conv2D f4 [64, 3, 3, 32]
0	0xbdcd7bd2	-0.100333825
1	0xbd9022ed	-0.070379116
2	0x3cb5dfc8	0.022201434
3	0xbc191e56	-0.009345612
4	0xbce96460	-0.028490245
5	0xbc999b03	-0.018750673
6	0xbce61a58	-0.028088734
7	0x3d74d27f	0.059771057
8	0xbc685eb3	-0.014182734
9	0x3dbfa83d	0.09358261
10	0xbdb5dda1	-0.08880163
11	0xbdf27569	-0.118388005
12	0x3dafd3b6	0.085853025
13	0x3de82a3d	0.11336181
14	0x3c11282e	0.008859677
15	0xbe51ce58	-0.2048887
16	0xbdf5d1a4	-0.120028764
17	0xbd474453	-0.048649143
18	0xbd5c5588	-0.053792506
19	0xbd84c83a	-0.06483503
20	0xbc104f7e	-0.008808015
21	0xbd314779	-0.043281052
22	0x3cac4fc0	0.021034122
23	0xbd0ff76b	-0.035148066
24	0x3c7d68fd	0.015466926
25	0xbc4aad16	-0.0123703685
26	0xbd2e8bba	-0.042613722
27	0xbd901282	-0.0703478
28	0x3cf055c1	0.029337766
29	0x3d2378d6	0.03991016
30	0xbdd4f1a4	-0.10397652
31	0x3d5cfd7c	0.05395268
32	0xbd2182be	-0.039431326
33	0xbdf90efc	-0.12161061
34	0x3e07e13c	0.13269514
35	0x3d8bb26d	0.068211414
36	0xbd6d34d6	-0.057911716
37	0x3c13f838	0.009031348
38	0x3da5c4dc	0.080941886
39	0xbdaf797b	-0.085680924
40	0xbcdf31ed	-0.027245486
41	0xbcf81abe	-0.03028619
42	0xbd763d5b	-0.060117107
43	0xbe366bb4	-0.17814523
44	0xbd9a46b8	-0.0753302
45	0x3cee9b43	0.029126769
46	0x3d96d93f	0.07365655
47	0xbddfe5d2	-0.109325066
48	0x3bb8c8ba	0.005639163
49	0x3cf32fc1	0.029685857
50	0x3db28378	0.08716482
51	0xbd605e07	-0.05477717
52	0x3c778140	0.015106499
53	0x3d90a79d	0.0706322
54	0xbda6c3aa	-0.08142789
55	0x3db3ccc0	0.08779287
56	0xbc05eb9f	-0.008173852
57	0xbdb43869	-0.08799822
58	0xbcff1e53	-0.03114239
59	0x3ce5eca2	0.028066937
60	0xbc6903c0	-0.0142220855
61	0x3d1b581f	0.037925836
62	0xbc48c2c4	-0.012253467
63	0xbe34007d	-0.17578311
64	0xbd0e08d1	-0.034676377
65	0xbda42ae2	-0.08015992
66	0x3d5637e4	0.052299395
67	0xbd3e4589	-0.046453033
68	0xbcdf640c	-0.027269386
69	0xbd66997a	-0.05629871
70	0x3de03245	0.10947088
71	0xbe1f56cf	-0.15560459
72	0xbe138283	-0.14405255
73	0xbc3f0cd3	-0.011660772
74	0xbda9adee	-0.082851276
75	0xbe784bf8	-0.2424773
76	0xbe174c67	-0.14775239
77	0xbd358ad4	-0.04432185
78	0xbcb79e06	-0.022414219
79	0x3d23bc07	0.03997424
80	0x3e079c99	0.13243331
81	0x3dadc6f0	0.0848521
82	0x3dba5de5	0.0909994
83	0xbbc26f1a	-0.0059336545
84	0xbd10fec5	-0.035399217
85	0xbd7873f6	-0.060657464
86	0xbe2f450f	-0.17116188
87	0xbbcf78c7	-0.0063315365
88	0x3ce10a13	0.027470624
89	0xbd61e5ad	-0.055150677
90	0x3b09b1d8	0.0021010544
91	0x3de953e2	0.113929525
92	0xbe31e730	-0.17373347
93	0xbd882edc	-0.06649563
94	0xbd5dbd8d	-0.054135848
95	0xbe2c04d7	-0.16798721
96	0xbe21c242	-0.1579676
97	0xbd772696	-0.060339533
98	0x3e0b4bd7	0.1360315
99	0xbde782f8	-0.11304277
100	0xbd8f9390	-0.07010567
101	0x3dacd72c	0.08439478
102	0xbd47339e	-0.04863321
103	0x3b080c46	0.0020759269
104	0x3d7790f1	0.06044096
105	0xbc15603c	-0.009117182
106	0xbd842c5b	-0.06453773
107	0xbe15b2e9	-0.1461903
108	0x3d8d8fe5	0.06912211
109	0x3e13a2a3	0.1441751
110	0x3d794fa6	0.060866974
111	0xbe1be632	-0.15224531
112	0xbdd87b30	-0.10570371
113	0xbdb0847e	-0.08619021
114	0xbdb45ebe	-0.08807133
115	0xbe057b13	-0.1303523
116	0x3d0ad91f	0.03389847
117	0xbdcfde5e	-0.10149835
118	0x3d30df1f	0.043181535
119	0xbc887817	-0.016658826
120	0x3c0c7a96	0.008574149
121	0xbc914a1d	-0.017735535
122	0xbd3e1659	-0.04640803
123	0x3a1cf5fc	0.0005987582
124	0x3db05baf	0.08611237
125	0xbde5bbf3	-0.11217489
126	0xbb4f32bc	-0.0031615933
127	0x3e29a062	0.16565087
128	0xbe41d7b1	-0.18929936
129	0xbe5a2490	-0.2130301
130	0x3d25266f	0.040319856
131	0xbd9d585e	-0.0768287
132	0xbe373bb9	-0.17893876
133	0x3da32e87	0.07967859
134	0x3da749a5	0.081683435
135	0x3c448ccc	0.011996459
136	0xbdb782a5	-0.08960465
137	0x3d7f5450	0.062336266
138	0xbd234a88	-0.039866
139	0xbea0fb18	-0.3144157
140	0x3cd75b2a	0.026288588
141	0x3d49c49b	0.049259763
142	0xbb5b6272	-0.0033475426
143	0xbdb030ac	-0.086030334
144	0xbd823050	-0.06356871
145	0x3ddf8034	0.10913125
146	0x3df1597b	0.11784645
147	0xbe107ccf	-0.1411011
148	0xbd81cf1d	-0.06338332
149	0xbd119523	-0.03554262
150	0x3d159dcd	0.036527444
151	0xbc4b4388	-0.012406237
152	0x3d123549	0.035695348
153	0xbd342383	-0.04397918
154	0xbd8e74d2	-0.069558755
155	0x3d85a9cc	0.06526527
156	0x3d1c1ba6	0.038112305
157	0xbc2fd854	-0.010732729
158	0xbe226a88	-0.15860951
159	0xbc5344f8	-0.012894861
160	0x3ba99a6a	0.0051758783
161	0xbe250206	-0.16114053
162	0x3e4f1bac	0.202254
163	0xbda336bf	-0.07969426
164	0xbe4543b4	-0.19264108
165	0xbd0f79d4	-0.035028294
166	0x3dbf3c21	0.093376406
167	0xbe2508cc	-0.16116637
168	0xbdade581	-0.0849104
169	0xbd95667e	-0.072949395
170	0xbcd5e803	-0.026111608
171	0xbece8b5e	-0.40340704
172	0xbd8b5622	-0.06803538
173	0xbdf400b0	-0.11914194
174	0xbc87d0f7	-0.016579134
175	0xbdc99298	-0.09842414
176	0x3de9065a	0.113781646
177	0x3bde2984	0.0067798514
178	0x3db09d84	0.08623794
179	0xbdfae44d	-0.12250576
180	0xbc6a60c8	-0.014305301
181	0x3d97ba51	0.07408584
182	0xbe502c98	-0.20329511
183	0x3c682d2f	0.014170929
184	0x3e45ab07	0.19303523
185	0x3da77628	0.081768334
186	0x3db6e810	0.08930981
187	0xbd50a188	-0.0509353
188	0xbc5d9c39	-0.013526016
189	0x3d263a00	0.040582657
190	0xbda63eaa	-0.08117421
191	0xbe631586	-0.2217618
192	0xbc4dcd0d	-0.012561095
193	0xbdce2f96	-0.1006767
194	0x3cb454dd	0.022013122
195	0xbde568db	-0.1120164
196	0xbd6a9d9e	-0.05727922
197	0xbdce705c	-0.100800246
198	0xbdd40289	-0.10352046
199	0xbe11a78f	-0.14224075
200	0x3bf23782	0.007391871
201	0x3cc809e5	0.02441878
202	0xbc3a9d2e	-0.011390014
203	0xbe098344	-0.1342898
204	0xbd96051a	-0.07325192
205	0xbd87644d	-0.06610928
206	0x3c159c32	0.009131478
207	0x3d307ff6	0.043090783
208	0xbe39cfce	-0.18145677
209	0xbc973972	-0.01846001
210	0xbbc86b5d	-0.0061163143
211	0xbdee38a0	-0.11631894
212	0xbd4e8c9d	-0.050427068
213	0xbcfba062	-0.030716125
214	0x3da1066c	0.07862553
215	0x3d101fcc	0.035186574
216	0x3e3005b0	0.1718967
217	0xbcff51f2	-0.031167004
218	0x3ced0e7e	0.028937574
219	0x3c7725d2	0.015084701
220	0x3c8cf69a	0.017207433
221	0x3da239d8	0.07921189
222	0xbd827436	-0.06369822
223	0xbb85c1a5	-0.004081922
224	0xbd05115d	-0.032487262
225	0xbe57c953	-0.21072893
226	0xbda031c8	-0.07821995
227	0xbd5f8574	-0.05457063
228	0xbe01309b	-0.12616198
229	0x3d9227b1	0.07136477
230	0xbd06c70a	-0.032904662
231	0xbc6479a0	-0.013945013
232	0x3c17e38d	0.009270561
233	0xbb80d29d	-0.003931357
234	0x3dcac3f8	0.09900659
235	0xbeae5acc	-0.34053648
236	0x3de7b3b3	0.11313572
237	0x3d8b4277	0.067997865
238	0x3cf7459b	0.030184558
239	0xbe2ba8bb	-0.16763584
240	0xbdb546c5	-0.08851389
241	0xbc023aab	-0.007948558
242	0xbc8d11c8	-0.017220393
243	0xbe403040	-0.18768406
244	0xbc3e1014	-0.011600513
245	0x3cb38bad	0.021917189
246	0xbe0052a4	-0.12531525
247	0xbce978cd	-0.028499985
248	0xbdfd15dc	-0.12357685
249	0x3d59104a	0.05299405
250	0xbcc34476	-0.023836356
251	0xbd5b6e6d	-0.053572107
252	0x3e03a5a4	0.12856156
253	0x3db348bd	0.08754108
254	0xbd5f3ecf	-0.05450326
255	0x3c623801	0.013807298

sequential/conv2d_2/Conv2D f4 [64, 3, 3, 64]
0	0x3dfb665f	0.12275385
1	0xbe53da28	-0.20688689
2	0xbd799c90	-0.060940325
3	0xbd427555	-0.047475178
4	0x3e35143b	0.17683499
5	0xbdbdb5d1	-0.09263194
6	0x3be38881	0.006943763
7	0xbdbdd989	-0.09270007
8	0xbe0e2d9e	-0.13884589
9	0xbe7ce490	-0.24696565
10	0xbd562a85	-0.052286644
11	0xbe0c8fb8	-0.137267
12	0x3ce8d3fb	0.028421393
13	0x3cbed2d7	0.023293896
14	0xbe2ec27a	-0.17066374
15	0x3e16917a	0.14703932
16	0xbd204700	-0.03913021
17	0x3c31ecff	0.010859727
18	0xbd8b9c3e	-0.0681691
19	0xbd4c7896	-0.049919687
20	0xbcb8c1fa	-0.022553433
21	0xbd060c46	-0.03272655
22	0x3d500966	0.050790213
23	0x3dde012d	0.10840068
24	0xbe64d716	-0.22347674
25	0x3d410144	0.047120348
26	0xbc8a1d28	-0.016859606
27	0xbe04da8e	-0.12973997
28	0xbdb828d4	-0.08992162
29	0xbe459fcf	-0.19299243
30	0x3cc7f4c2	0.024408702
31	0x3dbe28ba	0.09285112
32	0xbd03dc36	-0.03219243
33	0xbd59a20a	-0.053133048
34	0xbd241296	-0.040056787
35	0xbdc425e5	-0.0957754
36	0xbcfb42e2	-0.03067154
37	0x3c769fba	0.01505273
38	0x3d99ce51	0.07510055
39	0xbca32032	-0.019912813
40	0xbd0f1d51	-0.034940068
41	0x3da349b6	0.079730436
42	0x3b2f7600	0.0026773214
43	0x3c1b8444	0.009491984
44	0x3daa0aa4	0.08302811
45	0xbdda14cc	-0.10648498
46	0xbe29a2f4	-0.16566068
47	0xbd0e067c	-0.034674153
48	0xbe168d32	-0.14702299
49	0x3d823772	0.063582316
50	0xbc8b01ff	-0.016968725
51	0xbce08acb	-0.027409932
52	0xbe0a7390	-0.13520646
53	0x3cda7119	0.026665257
54	0x3d1ae23a	0.037813403
55	0xbd4a0199	-0.04931793
56	0x3c859313	0.016305482
57	0xbd48b1c6	-0.048997663
58	0xbbd7eb52	-0.0065893317
59	0x3bf1662a	0.0073669152
60	0xbdffe5e7	-0.12495022
61	0xbe9134b3	-0.2836052
62	0x3e076203	0.13220982
63	0xbc81aa48	-0.015828267
64	0x3df7e495	0.121041454
65	0xbe168a47	-0.14701186
66	0xbd2219f6	-0.03957554
67	0xbd2eea49	-0.0427039
68	0x3d99c30d	0.07507906
69	0xbcf8e3b4	-0.030382015
70	0xbcdb3169	-0.026756959
71	0xbca8bbcb	-0.02059736
72	0xbe2f8680	-0.17141151
73	0xbe844f1e	-0.25841612
74	0xbda78562	-0.08179738
75	0xbdac125d	-0.0840194
76	0xbc98d62e	-0.018656816
77	0xbd2a6f2a	-0.04160992
78	0xbe340b52	-0.17582443
79	0x3db69b99	0.08916397
80	0xbc3bbc5b	-0.011458482
81	0x3be91168	0.0071126707
82	0x3c7884c9	0.015168377
83	0xbe58f487	-0.2118703
84	0x3d96b5d8	0.07358903
85	0x3dc1717f	0.09445476
86	0xbd5b26a0	-0.053503633
87	0x3db743cc	0.08948478
88	0xbe89dc59	-0.26925924
89	0xbd51ed28	-0.05125156
90	0xbd4437e3	-0.04790486
91	0xbdb2d5e5	-0.087322034
92	0xbd15d45e	-0.036579482
93	0xbe0586c4	-0.1303969
94	0x3dac02aa	0.08398946
95	0xbcefc3a7	-0.029268099
96	0x3c05f562	0.00817618
97	0xbbd1033c	-0.0063785594
98	0x3d15f0f7	0.036606755
99	0x3cfcc4b1	0.030855509
100	0xbe89418c	-0.2680782
101	0x3d1b4c2f	0.03791445
102	0xbc879545	-0.01655067
103	0x3d22ce4d	0.039747525
104	0x3d9b01b7	0.075686865
105	0x3d1d3da8	0.038388878
106	0x3d451d55	0.048123676
107	0x3d3272f9	0.043566678
108	0xba4180c9	-0.0007381556
109	0xbdfc4620	-0.12318063
110	0xbea083e9	-0.3135064
111	0xbdc8d930	-0.0980705
112	0xbe22e4ea	-0.15907636
113	0x3cfe179b	0.031017115
114	0x3c12e77e	0.008966325
115	0x3b4c5e7c	0.0031184247
116	0xbd864abf	-0.065572254
117	0x3dbad2d6	0.09122245
118	0xbe24fb8e	-0.16111585
119	0xbe041f37	-0.12902533
120	0xbe05c5fc	-0.13063806
121	0x3de8acbc	0.113610715
122	0xbc39f1db	-0.011349167
123	0xbc1520b6	-0.009102037
124	0xbda141d5	-0.078738846
125	0xbde85378	-0.113440454
126	0x3da7f0ce	0.08200227
127	0xbe319d9f	-0.17345284
128	0xbd935002	-0.07192995
129	0x3bf21e9b	0.0073889024
130	0x3c870d52	0.016485844
131	0xbb8a4a15	-0.004220257
132	0xbdc54071	-0.09631432
133	0x3d858001	0.065185554
134	0x3e05c295	0.13062508
135	0xbe1e473e	-0.15456864
136	0xbdbd8bdd	-0.092551924
137	0xbe1ba0be	-0.15198037
138	0xbeae8d6a	-0.34092265
139	0xbe44c4e0	-0.19215727
140	0xbdd4d470	-0.10392082
141	0xbe286d12	-0.16447857
142	0xbe2bc4d0	-0.16774297
143	0xbdc92857	-0.09822147
144	0x3de5f89d	0.1122906
145	0xbd521ffb	-0.05130003
146	0xbd6ef9e6	-0.05834379
147	0xbdee8e30	-0.11648214
148	0x3db48b3c	0.08815619
149	0xbd763b79	-0.06011531
150	0xbd0d3097	-0.034470167
151	0x3ab72ff3	0.0013976082
152	0xbe99f372	-0.30068547
153	0xbd73c4b2	-0.059513755
154	0x3b9058df	0.0044051255
155	0xbb1e079c	-0.0024113422
156	0xbc80cf8c	-0.015723966
157	0xbdc279a3	-0.094958566
158	0xbd562e81	-0.052290443
159	0xbde14ec8	-0.110013545
160	0xbd976f74	-0.07394305
161	0x3cb5317f	0.022118328
162	0xbcb20677	-0.021731598
163	0x3bf8658f	0.007580466
164	0xbe493f9f	-0.19653176
165	0xbedce3e0	-0.43142605
166	0x3d31c599	0.043401334
167	0x3d42d706	0.047568344
168	0xbde4a0af	-0.111634605
169	0xbe1a7b48	-0.1508609
170	0xbe155ea1	-0.1458688
171	0x3ce2b7ac	0.027675472
172	0x3d2442e9	0.040102873
173	0xbe86ded5	-0.26341882
174	0xbcece53a	-0.028917897
175	0xbdec1e80	-0.11529255
176	0xbe91fbc1	-0.28512385
177	0xbddbdc3a	-0.10735364
178	0xbb27f9b1	-0.0025631005
179	0xbd00f268	-0.031481177
180	0xbe131586	-0.1436368
181	0x3bb762d5	0.0055964985
182	0xbe72575b	-0.23666136
183	0xbe084d71	-0.13310792
184	0xbdb7bc19	-0.08971424
185	0xbe02840d	-0.12745686
186	0xbde7e388	-0.11322695
187	0xbc0bfd1a	-0.008544231
188	0xbdb05e69	-0.08611757
189	0x3ce7aa5d	0.028279478
190	0xbc4f1f04	-0.012641672
191	0xbe412f53	-0.18865709
192	0xbdfdec10	-0.12398541
193	0xbd2acea9	-0.041700993
194	0x3dd7865c	0.10523674
195	0xbc6f6930	-0.014612481
196	0xbdc488bd	-0.09596393
197	0x3db5111e	0.088411555
198	0xbcd3ed6a	-0.025870044
199	0x3d51c16a	0.051209845
200	0x3db036da	0.08604212
201	0xbd9c5f7d	-0.076354004
202	0xbd3ac216	-0.04559525
203	0xbccbefd1	-0.024894627
204	0xbd5b22b2	-0.053499885
205	0xbda2baab	-0.0794576
206	0xbe8a9f1f	-0.27074525
207	0x3c3f4a28	0.011675395
208	0xbd71acd4	-0.059002712
209	0xbca477e4	-0.0200767
210	0xbbed6e3c	-0.007245807
211	0xb92adcda	-0.00016294737
212	0xbe941538	-0.2892244
213	0xbd3caa4a	-0.046060838
214	0x3df0006f	0.11718833
215	0x3aae2b07	0.001328797
216	0xbd93816f	-0.07202422
217	0xbd82e2db	-0.063909255
218	0xbe1111b5	-0.14166911
219	0xbdad61ba	-0.084659055
220	0xbe122875	-0.14273246
221	0xbdffc935	-0.12489549
222	0xbd56596d	-0.052331377
223	0x3e4689d4	0.19388515
224	0x3c87e40a	0.01658823
225	0xbd2f8c68	-0.04285851
226	0x3d23c507	0.03998282
227	0xbda64e8e	-0.08120452
228	0xbdc51fea	-0.09625228
229	0x3bca0d67	0.0061661485
230	0x3de38348	0.11109024
231	0xbd868623	-0.06568553
232	0xbbc46352	-0.005993285
233	0x3dd532a6	0.10410051
234	0x3a34c184	0.0006895291
235	0x3cb37529	0.021906452
236	0x3d9685d0	0.073497415
237	0x3c7fe4a6	0.015618479
238	0xbdf9f30e	-0.12204562
239	0xbdb9f080	-0.09079075
240	0xbdf2ec76	-0.118615076
241	0xbdb71e3b	-0.08941313
242	0xbcb2fa7d	-0.021847958
243	0xbc744ecf	-0.014911368
244	0xbcd76a8a	-0.026295919
245	0xbdd5f8f5	-0.104478754
246	0x3c13a7a6	0.0090121385
247	0xbe82ad44	-0.25522816
248	0xbe6e0d15	-0.23247178
249	0xbcde46f0	-0.027133435
250	0xbce17bc3	-0.027524834
251	0xbcdbe105	-0.026840696
252	0xbd6ed1ac	-0.058305427
253	0xbbed03af	-0.007233105
254	0x3cb3b7fe	0.02193832
255	0x3c7aab5c	0.015299644
