Week13_3/app/src/main/assets/keras_model_cnn_fashion.tflite (tflite, 377196 bytes, 10 tensors)

sequential_2/dense_5/BiasAdd/ReadVariableOp f4 [10]
0	0xbc9b60c8	-0.018967047
1	0xbdc6e348	-0.09711319
2	0x3da4227e	0.08014391
3	0x3ce37eb7	0.027770383
4	0xbe0ad2d1	-0.13556983
5	0xbdd5017e	-0.10400675
6	0x3dcbf47e	0.099587426
7	0x3da686d9	0.08131189
8	0x3d1909d3	0.037362885
9	0xbd9df57a	-0.077128366

sequential_2/dense_4/BiasAdd/ReadVariableOp f4 [64]
0	0xbe152b5d	-0.14567323
1	0x3bd5e97b	0.006528077
2	0xbc8ef985	-0.017452965
3	0xbd2df7b5	-0.04247256
4	0x3e02ab3a	0.1276063
5	0xbd2112fb	-0.03932474
6	0xbd812b0a	-0.06307037
7	0x3d462826	0.048378132
8	0x3dada473	0.08478632
9	0x3d143bd6	0.036189876
10	0xbcc5bc99	-0.024137782
11	0x3d90f0ac	0.070771545
12	0xbc8cccaa	-0.017187435
13	0xbd6982cd	-0.057009507
14	0x3d55564b	0.05208425
15	0xbc4f70c4	-0.012661163
16	0xbc11b09d	-0.008892206
17	0xbca59fe6	-0.020217847
18	0x3dde9f82	0.108702675
19	0xbc516945	-0.012781446
20	0xbd1a55b7	-0.0376794
21	0xbd3a50c7	-0.04548719
22	0xbd81bf4d	-0.06335316
23	0x3df8d3d4	0.12149778
24	0x3d8465ec	0.064647526
25	0xbd8565a1	-0.06513525
26	0xbc3c02d0	-0.01147528
27	0x3d87b7cb	0.066268526
28	0xbcb14e1b	-0.021643689
29	0x3d8cd9bd	0.06877468
30	0x3de9fa4a	0.11424692
31	0xbd38702f	-0.04502886
32	0x3d44813e	0.047974817
33	0x3df4dd18	0.11956233
34	0x3e1072df	0.1410632
35	0xbc11bdd2	-0.008895354
36	0x3dc6cde1	0.09707237
37	0xbd0e07aa	-0.034675278
38	0x3e198979	0.14993848
39	0x3d5a7d2f	0.05334204
40	0xbdc58af3	-0.09645643
41	0xbcb98065	-0.022644231
42	0xbd8b47f3	-0.068008326
43	0xbd102969	-0.03519574
44	0xbcdfde76	-0.027327757
45	0xbcd98342	-0.026551846
46	0xbdaecf79	-0.08535666
47	0x3e0db13c	0.13837141
48	0xbd528048	-0.05139187
49	0x3cba967a	0.022776831
50	0xbd1c9e14	-0.038236693
51	0x3e051ae7	0.12998544
52	0xbc3bec6b	-0.011469941
53	0xbd375c54	-0.044765785
54	0xbd138deb	-0.036024015
55	0xbd092a7c	-0.033487782
56	0xbcf55336	-0.029946905
57	0x3daddd31	0.084894545
58	0x3df51e4a	0.11968668
59	0x3d709dd5	0.05874427
60	0x3d9c94b7	0.076455526
61	0xbd52c9ce	-0.051461987
62	0xbd96aeb1	-0.073575385
63	0x3d8d5f61	0.06902958

sequential_2/conv2d_8/BiasAdd/ReadVariableOp f4 [64]
0	0xbc861333	-0.016366577
1	0x3da61ba9	0.081107445
2	0x3e49095b	0.19632475
3	0xbdf9c1bb	-0.12195154
4	0x3e15d122	0.14630559
5	0x3dfce4d1	0.12348331
6	0x3e43d59c	0.19124454
7	0x3ded61ca	0.115909174
8	0x3e26c17f	0.1628475
9	0x3d7515b8	0.059835166
10	0xbcb9d143	-0.022682792
11	0x3e1b8efa	0.1519126
12	0xbc548c71	-0.012972937
13	0x3e22ad0a	0.15886322
14	0x3e60105f	0.21881245
15	0xbde928c8	-0.113847315
16	0xbcf6ad3f	-0.030111907
17	0x3dc565e3	0.09638574
18	0x3daaadac	0.083339065
19	0xbd050ec5	-0.03248479
20	0xbc0d10a7	-0.008609927
21	0x3e7a94e1	0.24470855
22	0xbc8af609	-0.016963022
23	0x3d571207	0.052507427
24	0xbc0c4d97	-0.008563421
25	0x3e8fea48	0.2810843
26	0xbd21acf5	-0.039471585
27	0xbd0cdcb1	-0.034390155
28	0x3d3de4c8	0.04636076
29	0xbcb11f59	-0.021621393
30	0xbd8ba6a5	-0.06818894
31	0x3e09791a	0.13425103
32	0x3d878811	0.066177495
33	0x3da9e422	0.08295466
34	0x3b0c3846	0.0021395846
35	0x3e188048	0.14892685
36	0x3d801e84	0.062558204
37	0x3e061bc7	0.13096534
38	0x3d3be0f6	0.045868836
39	0x3dc39058	0.09549016
40	0x3e0e23e7	0.13880883
41	0x3d8c0f51	0.06838859
42	0x3e040738	0.12893379
43	0xbbe4c2e2	-0.0069812397
44	0xbdb1c7cc	-0.08680686
45	0xbccb71c7	-0.024834527
46	0xbcc13b9e	-0.023587998
47	0x3df64766	0.12025337
48	0xbd107a4e	-0.03527289
49	0xbd2e6c4d	-0.042583752
50	0xbd4b8c83	-0.04969455
51	0x3e0ee2ee	0.13953754
52	0x3e3c94c0	0.18416119
53	0x3cc92ce5	0.02455754
54	0xbb69eb30	-0.0035693161
55	0x3d62dec8	0.055388242
56	0x3e35c928	0.17752516
57	0x3e3ba801	0.18325807
58	0xbd3bee46	-0.045881532
59	0x3e2d51e6	0.16925773
60	0x3cebf41c	0.028802924
61	0xbd36cd22	-0.044629224
62	0x3e254e7e	0.16143224
63	0x3e134234	0.14380723

sequential_2/conv2d_7/BiasAdd/ReadVariableOp f4 [64]
0	0xbe0d15be	-0.13777825
1	0xbe021bfc	-0.12705988
2	0x3e454da1	0.19267894
3	0x3e42faeb	0.1904103
4	0x3b82a9a2	0.003987507
5	0x3e053920	0.13010073
6	0xbc478dfa	-0.012179846
7	0x3d11fd96	0.03564223
8	0xbd1419ba	-0.036157347
9	0x3e0bf4ab	0.13667552
10	0x3e653b4c	0.22385901
11	0x3e2d567a	0.1692752
12	0xbb2eae88	-0.0026654322
13	0xbc887dd1	-0.016661556
14	0xbd0cef17	-0.0344077
15	0x3d239f0a	0.039946593
16	0x3e19507c	0.14972109
17	0x3dc2ff30	0.095213294
18	0xbc93e9dc	-0.018055849
19	0xbcac5495	-0.021036426
20	0x3c7c2661	0.01539001
21	0x3e456526	0.19276866
22	0xbd0b5e20	-0.03402531
23	0xbc88475b	-0.016635587
24	0xbd1ee72f	-0.038794693
25	0xbe0d66b0	-0.13808703
26	0x3c0daa03	0.008646491
27	0xbd66868c	-0.056280658
28	0xbd94bed6	-0.072629616
29	0x3d92a8de	0.07161115
30	0xbc8f3e28	-0.017485693
31	0x3d21516d	0.039384294
32	0xbe21f212	-0.15814999
33	0x3ccfeb27	0.025380684
34	0xbddbf595	-0.107402004
35	0x3c3d023b	0.011536176
36	0x3d885b43	0.06658032
37	0xbd2ed05b	-0.042679172
38	0xbcf06385	-0.02934433
39	0xbcb16df5	-0.021658877
40	0x3d2c208f	0.042023238
41	0x3d5006b4	0.050787643
42	0xbd829b34	-0.06377259
43	0xbc5fcdda	-0.013659919
44	0xbc90f57e	-0.017695185
45	0xba75510e	-0.00093580864
46	0x3d8ee6eb	0.06977638
47	0xbda06043	-0.078308605
48	0xbc09da40	-0.008413851
49	0x3d8561ac	0.0651277
50	0xbce62056	-0.02809159
51	0xbe462bbf	-0.19352625
52	0x3d822dc0	0.06356382
53	0xbc05acf9	-0.008158916
54	0xbd0e26cb	-0.034704965
55	0xbc48eff3	-0.01226424
56	0xbc9986f4	-0.018741108
57	0xbd7ef1c1	-0.062242273
58	0x3e3ad65e	0.18245837
59	0xbdefed1b	-0.11715146
60	0x3c929a27	0.017895771
61	0x3d9e8d18	0.07741755
62	0xbb2d572a	-0.002644966
63	0x3df736cc	0.120709985

sequential_2/conv2d_6/BiasAdd/ReadVariableOp f4 [32]
0	0x3e445967	0.1917473
1	0x3c2a275b	0.01038536
2	0xbc42b5d4	-0.0118841715
3	0x3bd5fbfa	0.006530282
4	0x3bc4fd7d	0.0060116635
5	0xbd6e9333	-0.05824585
6	0xbd637b0c	-0.05553727
7	0xbcdebddf	-0.027190147
8	0xbce4d626	-0.027934145
9	0xbb8560ee	-0.004070393
10	0xbb8418f0	-0.004031293
11	0x3ba70393	0.0050968616
12	0xbc5d29e4	-0.013498757
13	0x3bb6bfc1	0.005577058
14	0xbcffa690	-0.031207353
15	0xbd29419f	-0.041322347
16	0x3c3cdf8f	0.01152791
17	0x38f4012c	0.00011635045
18	0xbc029e24	-0.007972274
19	0x3e076cc4	0.13225085
20	0x3de8ee08	0.11373526
21	0xbd351c04	-0.04421617
22	0xbb1ca67c	-0.0023902943
23	0xbbc37f54	-0.0059661064
24	0x3caee844	0.021350987
25	0x3cbc5f64	0.022994705
26	0xbd46d76f	-0.048545297
27	0x39efe7a0	0.00045758206
28	0xbc153438	-0.009106688
29	0xbc114c62	-0.008868309
30	0xbc5068ae	-0.01272027
31	0xbb9b7c69	-0.0047450555

sequential_2/dense_4/MatMul f4 [64, 576]
0	0x3d88d312	0.066808835
1	0x3dba8f8f	0.09109413
2	0x3d098bd2	0.03358061
3	0xbe0aeac7	-0.13566123
4	0x3e08f815	0.13375886
5	0xbde5086a	-0.111832455
6	0xbd908eca	-0.07058485
7	0x3c912768	0.017718986
8	0xbe4d5930	-0.20053554
9	0xbd5b4862	-0.053535827
10	0x3d9e65da	0.077342704
11	0xbe2e026a	-0.16993108
12	0xbcccdfed	-0.02500912
13	0x3d8e1ba4	0.06938866
14	0x3d33f40e	0.04393392
15	0xbd81bd11	-0.0633489
16	0x3c58baa6	0.013228094
17	0x3da47da8	0.080317795
18	0xbe3035d3	-0.17208032
19	0x3c06060b	0.008180152
20	0xbdc6521a	-0.096836284
21	0x3d39b7a3	0.045341145
22	0xbdb6e796	-0.0893089
23	0x3d7b4d06	0.061352752
24	0x3c5d0e87	0.013492233
25	0x3dfa08ca	0.12208708
26	0xbd8f89dd	-0.07008717
27	0x3d991460	0.07474589
28	0xbdb95cab	-0.09050878
29	0x3d9172a5	0.07101945
30	0xbb9c6b10	-0.004773505
31	0x3dd1b42e	0.10239445
32	0x37a99c70	2.0219217e-05
33	0xbe2d4f78	-0.16924846
34	0x3e3683c1	0.17823698
35	0x3da74313	0.0816709
36	0xbddd38c4	-0.10801843
37	0xbde0dcbf	-0.10979604
38	0x3d8ae4d9	0.067819305
39	0x3ca15582	0.019694094
40	0x3c9a6885	0.018848667
41	0x3d76354c	0.06010942
42	0x3e1e68aa	0.15469614
43	0x3d6eafb0	0.058273017
44	0x3d794358	0.06085524
45	0x3aa0ab01	0.0012257994
46	0xbd8e88e4	-0.069597036
47	0xbd0d2c30	-0.03446597
48	0x3d3c94fe	0.046040528
49	0x3e337529	0.17525162
50	0x3e2659ae	0.16245148
51	0x3e051a43	0.129983
52	0xbd9868c6	-0.07441859
53	0x3dfb1de8	0.122615635
54	0xbe1bd58f	-0.15218185
55	0xbb3f81a6	-0.0029221564
56	0xbd87def4	-0.06634322
57	0xbc3fb318	-0.011700414
58	0x3b1e5279	0.0024158044
59	0xbd366783	-0.04453231
60	0x3c312650	0.010812357
61	0x3d9be960	0.07612872
62	0x3d2e1827	0.042503502
63	0x3d858364	0.065192014
64	0x3d8ddd1e	0.069269404
65	0xbe45cc86	-0.19316301
66	0x3e60f9c8	0.21970284
67	0xbc5c1b34	-0.01343422
68	0xbdc20f4d	-0.09475575
69	0x3c1d96b0	0.009618446
70	0x3e3f361a	0.18672982
71	0xbd45719a	-0.048204042
72	0x3d9ac196	0.07556455
73	0xbcb96657	-0.022631807
74	0xbb69d33e	-0.0035678889
75	0xbdb4e953	-0.088335656
76	0xbc6095c8	-0.013707586
77	0x3d14a8ba	0.036293723
78	0xbe2c191f	-0.16806458
79	0xbd125e9b	-0.035734754
80	0xbd8fe54a	-0.07026155
81	0x3b1d431b	0.0023996297
82	0x3e24b379	0.16084088
83	0xbcdb4644	-0.026766904
84	0xbd93cf14	-0.072172314
85	0x3e1c6568	0.15273058
86	0x3d95bf88	0.07311922
87	0xbc8de5a0	-0.017321408
88	0x3e41b66d	0.18917246
89	0xbd906480	-0.07050419
90	0xbdb3d729	-0.08781273
91	0x3d0eabc3	0.034831773
92	0x3d826b5e	0.06368135
93	0x3e4ed265	0.20197447
94	0x3de4b841	0.11167956
95	0x3dd98cb9	0.10622544
96	0xbe262479	-0.1622485
97	0xbe7d03cc	-0.2470848
98	0x3db87edc	0.090085715
99	0x3d460a75	0.048349816
100	0x3d842df6	0.06454079
101	0x3e10d6f5	0.141445
102	0x3db48491	0.088143475
103	0x3c8d7e63	0.01727218
104	0xbace7df6	-0.0015754092
105	0xbe85bb0f	-0.26119277
106	0xbd9f3fed	-0.07775865
107	0x3d175180	0.03694296
108	0x3e0bfaf5	0.13669951
109	0xbdbc4fec	-0.091949314
110	0xbb2d5e34	-0.0026453855
111	0x3cd690b4	0.026192047
112	0x3e06bce1	0.13157989
113	0xbcf903eb	-0.030397376
114	0x3d815338	0.06314701
115	0xbdadee2b	-0.084926926
116	0xbec76e1b	-0.3895119
117	0xbdd1b4c6	-0.10239558
118	0xbe0f8ed0	-0.14019322
119	0xbe2c25ab	-0.16811244
120	0xbde444bf	-0.11145925
121	0xbe24f86b	-0.16110389
122	0xbd545302	-0.051836975
123	0x3da85cb3	0.08220806
124	0xbd5d4d00	-0.05402851
125	0x3dbd1229	0.092319794
126	0x3d322cb9	0.043499682
127	0x3c1dc320	0.009629041
128	0x3d631b0e	0.055445723
129	0xbc88423f	-0.016633151
130	0x3e193f2c	0.14965504
131	0x3db3a38a	0.08771427
132	0xb99c54b6	-0.00029817753
133	0x3daa6e50	0.08321822
134	0xbdd02d5f	-0.10164904
135	0xbc9181a6	-0.017762017
136	0x3df12917	0.117754154
137	0xbdc8a21f	-0.09796547
138	0xbdb79ee6	-0.08965854
139	0x3ddf305b	0.10897895
140	0x3d748ac4	0.05970265
141	0x3b302ae9	0.0026881045
142	0x3e07321c	0.13202709
143	0x3be2aa03	0.0069172396
144	0x3d570140	0.052491426
145	0x3c731298	0.014835976
146	0xbd14aec8	-0.036299497
147	0x3dca3325	0.09873036
148	0xbd900d7e	-0.070338234
149	0xbda90acc	-0.082540125
150	0x3b25c912	0.002529685
151	0xbd6194e7	-0.055073645
152	0x3dfb3b92	0.122672215
153	0xbe2b785a	-0.16745129
154	0xbdbb05e5	-0.09131984
155	0xbd43105a	-0.047623016
156	0xbe0da90f	-0.13834022
157	0xbbbd069b	-0.0057686097
158	0x3d6a008a	0.05712942
159	0xbdb96490	-0.09052384
160	0xbdda046e	-0.10645376
161	0x3c0dc6c7	0.008653349
162	0xbe2ab729	-0.16671433
163	0xbe563207	-0.20917521
164	0x3d4cb016	0.049972616
165	0x3c6ba60e	0.014382852
166	0xbd7980a4	-0.060913697
167	0xbd85e9c8	-0.06538731
168	0x3e29d9b9	0.16586961
169	0xbe15d876	-0.14633355
170	0x3da440b8	0.080201566
171	0x3d2b0537	0.04175302
172	0xbe22941d	-0.15876813
173	0xbca5b79e	-0.020229157
174	0x3bfb4761	0.007668421
175	0x3de57c42	0.11205341
176	0x3d318aa3	0.043345105
177	0xbdaa3e9b	-0.08312722
178	0xbdf4f78a	-0.11961277
179	0xbe394dc2	-0.18096069
180	0x3c30a254	0.01078089
181	0xbe3a066b	-0.18166511
182	0xbd639f54	-0.05557187
183	0x3e202271	0.15638138
184	0x3cc3ee02	0.023917202
185	0xbe3e4fea	-0.18585172
186	0x3d2bd6b6	0.04195281
187	0xbe0305d0	-0.12795186
188	0x3d3478a8	0.04406038
189	0xbd802f88	-0.06259066
190	0x3c0a3d85	0.008437519
191	0x3be7015c	0.0070497226
192	0x3d877f75	0.066161074
193	0x3d31bd38	0.043393344
194	0x3cbdebd8	0.023183748
195	0xbd9a1769	-0.075239964
196	0xbd3c160a	-0.045919456
197	0x3caade83	0.020858055
198	0x3d579465	0.052631754
199	0xbdf08c30	-0.11745489
200	0xbe038a82	-0.12845805
201	0xbe0430b8	-0.1290921
202	0xbe2b8e77	-0.16753565
203	0xbe3c2911	-0.1837504
204	0x3d1365e4	0.035985842
205	0xbde25d91	-0.110530026
206	0x3d50beb2	0.05096311
207	0xbda24f5f	-0.07925295
208	0x3cb47259	0.022027181
209	0xbd1bbd59	-0.038022373
210	0xbc15a1d0	-0.009132817
211	0xbced4053	-0.028961336
212	0x3d033c74	0.032040074
213	0xbdc43b70	-0.09581649
214	0xbda6d46f	-0.08145987
215	0xbd170cd2	-0.03687746
216	0xbd4b74f8	-0.049672097
217	0x3da87c4b	0.08226832
218	0xbc624950	-0.013811424
219	0xbcd35c00	-0.025800705
220	0x3db55033	0.088531874
221	0x3cd0bbe3	0.025480216
222	0xbd6111b3	-0.05494852
223	0xbcc509e7	-0.024052573
224	0x3dab934c	0.08377704
225	0x3d0211b6	0.03175517
226	0xbd4e1aab	-0.0503184
227	0xbc5e30a0	-0.013561398
228	0x3dd431b6	0.10361044
229	0x3d82c1a6	0.06384592
230	0x3d82d55f	0.063883536
231	0x3d52ba8a	0.05144743
232	0x3e232096	0.159304
233	0x3c9ee31e	0.019395407
234	0x3d8777c5	0.06614641
235	0x3e07ce84	0.13262373
236	0x3dc49e6a	0.096005276
237	0xbd9a4cb6	-0.07534163
238	0xbddee44f	-0.1088339
239	0xbdbc6aec	-0.09200081
240	0xbb92b7ea	-0.0044774907
241	0x3d940b9b	0.07228776
242	0x3cc62769	0.024188714
243	0xbc2fd546	-0.010732001
244	0xbd626548	-0.05527237
245	0xbd006d18	-0.03135404
246	0xbbd7992c	-0.006579539
247	0x3d2bd1dd	0.041948188
248	0x3d1c7f73	0.038207483
249	0xbda3c64c	-0.079968065
250	0xbcdf18ce	-0.027233507
251	0x3d29319b	0.041307073
252	0x3dc5a478	0.096505105
253	0xbc9345b3	-0.017977571
254	0x3daaead5	0.08345572
255	0x3b5e268b	0.0033897485

sequential_2/dense_5/MatMul f4 [10, 64]
0	0xbe7d880e	-0.24758932
1	0x3d3c62cb	0.045992654
2	0x3bc3b01a	0.0059719207
3	0xbdd0f9be	-0.102038845
4	0xbd4a6070	-0.049408376
5	0xbe6a66a9	-0.22890724
6	0x3df2ac26	0.11849241
7	0x3e5df097	0.21673809
8	0x3e0309de	0.12796733
9	0xbdf16fa4	-0.11788872
10	0xbdc00d13	-0.09377494
11	0xbd93f796	-0.07224958
12	0xbd59d55d	-0.053181995
13	0xbe4e344d	-0.20137139
14	0x3e0b6aa4	0.13614899
15	0x3e3550c1	0.17706586
16	0xbe528f13	-0.20562391
17	0xbdaaf833	-0.083481215
18	0xbd55fe6a	-0.05224458
19	0xbdddb827	-0.1082614
20	0x3e567b1f	0.20945404
21	0xbe2b1712	-0.1670802
22	0xbe6b0339	-0.22950448
23	0xbe34ad35	-0.17644198
24	0xbc14d91a	-0.009084964
25	0x3d6b04d8	0.057377666
26	0xbc8c518b	-0.017128726
27	0x3e169009	0.14703383
28	0x3e657d86	0.22411165
29	0x3e4f27fd	0.20230098
30	0x3df9e691	0.1220218
31	0xbe13bf5f	-0.14428471
32	0xbe572aef	-0.21012472
33	0x3e58bd31	0.21165921
34	0xbe4ed0f4	-0.20196897
35	0xbe92aae2	-0.28645998
36	0x3e302100	0.17200089
37	0x3c1aa556	0.009438833
38	0xbec3500a	-0.38147002
39	0xbf0a71c0	-0.5407982
40	0x3e38989f	0.1802697
41	0xbdc077e9	-0.09397871
42	0xbd969d3d	-0.073542096
43	0xbe4f0c6b	-0.20219581
44	0xbe4fd2a5	-0.20295198
45	0xbe7a001f	-0.24414109
46	0xbe42d8a5	-0.19027956
47	0x3e63b0ee	0.22235462
48	0xbe2c214c	-0.16809577
49	0xbed864b2	-0.42264324
50	0x3dbc0cda	0.09182139
51	0x3df93c32	0.121696845
52	0xbdbbbccd	-0.0916687
53	0x3e156d22	0.14592412
54	0x3e601e97	0.21886669
55	0x3d8102ff	0.062993996
56	0xbd7939a9	-0.060846005
57	0xbe6c2b7e	-0.23063466
58	0x3d7ad346	0.061236642
59	0xbe97ff09	-0.29686764
60	0x3e2272a5	0.15864046
61	0x3e8b5b85	0.2721826
62	0x3eb0c652	0.34526306
63	0xbe41fa64	-0.18943173
64	0xbc879731	-0.016551586
65	0xbe8a0b8c	-0.26961935
66	0x3ef849c6	0.48493785
67	0x3c817230	0.01580152
68	0xbf1f26eb	-0.6216876
69	0x3e3cdc42	0.18443397
70	0xbe072d33	-0.13200836
71	0x3e17c6ee	0.1482198
72	0xbf0ce6b4	-0.55039525
73	0xbe632ccd	-0.22185059
74	0xbd1eec45	-0.038799543
75	0x3d840d1f	0.06447815
76	0x3e325cc3	0.17418198
77	0xbe1590f1	-0.14606072
78	0x3de71541	0.11283351
79	0x3dcc70bf	0.09982442
80	0xbe1098e4	-0.14120823
81	0x3ecdac08	0.40170312
82	0x3dce9332	0.10086669
83	0x3dc5f6e6	0.09666233
84	0x3e807441	0.25088695
85	0x3e98b6cc	0.29826963
86	0xbd033922	-0.032036908
87	0xbea4dea8	-0.32201123
88	0xbc940640	-0.018069386
89	0xbe11af2a	-0.14226976
90	0xbd60c8ea	-0.054879107
91	0xbe1f8999	-0.15579833
92	0xbe59bf2e	-0.21264336
93	0x3ea2b2b1	0.31776956
94	0x3e379af1	0.17930199
95	0x3e62972b	0.22127979
96	0xbe995822	-0.29950052
97	0xbeee7349	-0.4657233
98	0x3e8c75a3	0.274335
99	0xbeb6df28	-0.3571713
100	0xbde840b8	-0.11340469
101	0x3e65608e	0.22400114
102	0xbe54176e	-0.20712063
103	0xbdf0289e	-0.11726497
104	0x3e9545b0	0.2915473
105	0xbe599c8f	-0.21251129
106	0x3e50d7e2	0.20394853
107	0xbe48b599	-0.19600524
108	0xbdb48241	-0.088139065
109	0xbda50bd6	-0.08058898
110	0xbaf4adba	-0.0018667497
111	0x3e005f5c	0.12536377
112	0x3e5bc334	0.21461183
113	0x3ba971a9	0.00517102
114	0xbe7a3751	-0.24435164
115	0x3e19c29a	0.15015641
116	0xbe1066cf	-0.14101718
117	0x3d74ed07	0.05979636
118	0xbaf29449	-0.0018507327
119	0xbe383558	-0.17989099
120	0x3dc37b39	0.09544987
121	0x3d637a87	0.055536773
122	0xbdb40134	-0.08789292
123	0xbea338cd	-0.31879273
124	0xbef37675	-0.47551313
125	0xbe919794	-0.28435957
126	0xbd5b33f2	-0.053516336
127	0x3df423bd	0.11920879
128	0xbdcad3f3	-0.09903707
129	0xbc6b3037	-0.014354757
130	0xbd05de9d	-0.032683004
131	0xbba25002	-0.0049533853
132	0xbe73b287	-0.23798572
133	0xbe4fbe42	-0.20287421
134	0xbe58dfb3	-0.21179084
135	0x3e50f3f8	0.20405567
136	0x3e294645	0.16530712
137	0xbe9c2f85	-0.30505005
138	0xbe785e7e	-0.24254796
139	0xbe169929	-0.14706863
140	0xbe1c271d	-0.15249296
141	0x3ddbc6a5	0.10731248
142	0x3c948f3a	0.018134702
143	0xbe57be3c	-0.21068662
144	0x3e611c7f	0.21983527
145	0x3e965c56	0.29367322
146	0xbd363114	-0.0444804
147	0x3d297113	0.0413676
148	0xbd47063a	-0.048589922
149	0xbe1b4157	-0.15161644
150	0x3e7a64b0	0.24452472
151	0x3e9c23f7	0.3049619
152	0xbe286996	-0.16446528
153	0xbe1de295	-0.15418465
154	0xbeaa4f77	-0.33263752
155	0xbf0bb28a	-0.54569304
156	0xbbdb27d3	-0.006688097
157	0xbee79c58	-0.45236468
158	0x3d6e09f3	0.058114957
159	0xbde1781e	-0.11009239
160	0xbeb4c57d	-0.35306922
161	0xbdd87c47	-0.10570579
162	0xbc304b6a	-0.010760168
163	0x3db6b31a	0.0892088
164	0x3d74c396	0.059756838
165	0xbd8f3c7e	-0.0699396
166	0x3e371ec2	0.17882827
167	0xbead01dc	-0.3379048
168	0x3e6b2e19	0.22966804
169	0x3e096e04	0.13420874
170	0x3e3620d8	0.17785966
171	0x3e2de1c7	0.16980658
172	0xbe3812e8	-0.17975962
173	0x3af62bc4	0.0018781354
174	0xbe4f95f0	-0.2027204
175	0x3ddbad2f	0.107263915
176	0xbdd1750a	-0.102274016
177	0x3e785fe7	0.24255334
178	0x3e749506	0.23884973
179	0x3defd62b	0.11710771
180	0x3e78412e	0.24243614
181	0x3eb09b60	0.34493542
182	0xbbb4de30	-0.005519651
183	0x3c1fa5a7	0.009744084
184	0x3d828671	0.06373299
185	0xbe9e4fd9	-0.30920294
186	0x3dff0bdf	0.12453436
187	0xbddfd951	-0.10930122
188	0x3e918aca	0.284262
189	0xbe01c816	-0.12673983
190	0xbedfd2f5	-0.43715635
191	0xbce130ee	-0.027489152
192	0xbe05972d	-0.1304595
193	0xbc565a00	-0.013082981
194	0xbe2c2938	-0.16812599
195	0x3ddba713	0.10725226
196	0xbe6bcc0f	-0.23027061
197	0xbe86bf18	-0.26317668
198	0xbd04ac40	-0.032390833
199	0x3e427549	0.18990053
200	0x3d566cdf	0.05234992
201	0xbe29bf52	-0.16576889
202	0xbdb6028d	-0.08887205
203	0x3dd52354	0.10407129
204	0xbc2e21b2	-0.010628151
205	0x3d6c7b2e	0.05773466
206	0xbec9398c	-0.39301717
207	0xbd50104b	-0.05079679
208	0xbe39a43f	-0.18129061
209	0xbe5a45ed	-0.21315737
210	0x3d03c53f	0.03217053
211	0x3d5e7273	0.054308366
212	0xbe48bbb2	-0.1960285
213	0x3de0cf20	0.10977006
214	0x3dfea6f7	0.1243419
215	0x3e023aac	0.12717694
216	0xbe472b4b	-0.19450109
217	0x3e25205d	0.16125627
218	0xbee28176	-0.44239396
219	0x3e45b85c	0.19308609
220	0x3d54e504	0.05197622
221	0xbeb8407f	-0.35986707
222	0x3dacdc46	0.08440451
223	0x3e56dfe7	0.2098385
224	0xbe9a55ed	-0.3014368
225	0x3de1c2ee	0.11023508
226	0x3db4d15a	0.08828993
227	0x3e80e419	0.25174025
228	0x3e306ac8	0.17228234
229	0x3deaca2b	0.11464342
230	0xbe83811e	-0.25684446
231	0xbe2a1b16	-0.16611895
232	0x3e0a5e2a	0.13512483
233	0xbe86e607	-0.26347372
234	0x3e3a16f5	0.1817282
235	0x3d68a613	0.056799006
236	0xbd852b14	-0.06502357
237	0xbcd05bf6	-0.025434475
238	0x3e54194c	0.20712775
239	0xbd615308	-0.055010825
240	0x3e5fef0c	0.21868533
241	0x3cfc7c83	0.03082109
242	0x3ce26733	0.0276371
243	0xbde0bd17	-0.10973566
244	0xbe194296	-0.14966807
245	0xbed0157c	-0.4064139
246	0x3e39d9e9	0.18149532
247	0x3d82215b	0.06354018
248	0xbe8c4842	-0.27398878
249	0x3c51e44e	0.01281078
250	0x3de101d5	0.109866776
251	0x3e66f0cd	0.22552796
252	0xbe76da6a	-0.24106756
253	0xbe8f818e	-0.2802853
254	0xbc0a1645	-0.008428161
255	0x3ea255fc	0.31706226

sequential_2/conv2d_6/Conv2D f4 [32, 3, 3, 1]
0	0xbf939cf1	-1.153227
1	0xbf6b65be	-0.9195212
2	0xbe4a4708	-0.19753659
3	0xbf4342a9	-0.7627359
4	0xbf1d9007	-0.61547893
5	0x3d1eac0d	0.0387383
6	0xbda1f2e0	-0.07907653
7	0x3da6c8e7	0.08143788
8	0x3e3b9b7b	0.1832103
9	0x3e83cd95	0.25742784
10	0xbc7d575c	-0.015462723
11	0x3da1b9a1	0.07896734
12	0xbdfe02c7	-0.124028735
13	0x3d822a78	0.063557565
14	0x3e6cac2a	0.2311255
15	0xbe37d573	-0.17952518
16	0xbdb650b8	-0.08902115
17	0xbea663d0	-0.32498026
18	0xbd8ff50d	-0.070291616
19	0x3e5d64c2	0.21620467
20	0xbe11fc61	-0.14256431
21	0xbe640ed6	-0.22271284
22	0x3ea5c721	0.32378486
23	0xbda5b3f3	-0.08090963
24	0xbe3c4010	-0.18383813
25	0x3e40d3a9	0.18830742
26	0xbc55188b	-0.01300634
27	0xbe31e408	-0.17372143
28	0x3e117653	0.14205293
29	0x3dda0d39	0.10647053
30	0x3e525179	0.20538892
31	0xbe2f2dd2	-0.17107323
32	0xbdcd1df3	-0.10015478
33	0xbdb2649d	-0.08710597
34	0x3c75e13e	0.015007315
35	0xbd3ffbc8	-0.046870977
36	0x3e7db262	0.24775079
37	0xbe55b45a	-0.2086958
38	0xbcfa0016	-0.03051762
39	0x3ead485c	0.33844268
40	0xbe5a9273	-0.21344928
41	0xbdc162e4	-0.0944269
42	0x3e1827e7	0.14858972
43	0xbdeeda7a	-0.11662765
44	0xbcc1ae40	-0.02364266
45	0xbe017727	-0.1264311
46	0x3af76ac0	0.0018876418
47	0x3dbf5ca6	0.09343843
48	0x3cf5ffc7	0.03002919
49	0xbd07d0db	-0.033158164
50	0x3d82afa4	0.06381157
51	0xbd56d630	-0.05245036
52	0xbdad8a2d	-0.084736206
53	0xbcc18faf	-0.023628084
54	0x3d8b65b3	0.06806507
55	0xbd4428bb	-0.047890406
56	0x3d24f9d0	0.040277302
57	0x3d1e1cc1	0.03860164
58	0xbd2be960	-0.04197061
59	0xbe3ab6a3	-0.18233733
60	0xbd76a1b8	-0.06021282
61	0x3d24ac04	0.04020311
62	0xbe04196e	-0.12900326
63	0x3d80e1e3	0.062930845
64	0x3e0e1ffe	0.13879392
65	0x3e06058f	0.13088058
66	0xbe4d1471	-0.20027329
67	0xbe323f71	-0.17407013
68	0xbd49c600	-0.049261093
69	0x3cbd7ad0	0.02312985
70	0x3dca7f1b	0.09887525
71	0xbca37048	-0.019951
72	0x3e2d1ad8	0.16904771
73	0xbe7c770f	-0.24654792
74	0x3e043e24	0.1291433
75	0x3e005beb	0.12535064
76	0xbe7878d3	-0.24264841
77	0x3e06b77c	0.13155931
78	0x3d2ac573	0.04169221
79	0xbe900feb	-0.28137144
80	0x3e77dfd2	0.24206474
81	0x3e05586b	0.1302201
82	0xbe47e0a3	-0.19519286
83	0xbd3c04f3	-0.045903157
84	0x3d85c3b1	0.06531466
85	0x3dbdcfc8	0.09268147
86	0x3b1ec373	0.0024225384
87	0xbe77f3ce	-0.24214098
88	0x3dd1d387	0.10245424
89	0x3b130172	0.0022431281
90	0x3e47db32	0.1951721
91	0x3e01d65b	0.12679426
92	0x3da160f6	0.07879822
93	0xbe0094ba	-0.12556735
94	0x3e1598bf	0.1460905
95	0xbb5f1232	-0.0034037945
96	0xbd340da3	-0.043958317
97	0xbdda0f5c	-0.10647461
98	0xbe659939	-0.22421731
99	0x3db0fc58	0.08641881
100	0x3e4985ec	0.19679993
101	0xbe943728	-0.2894833
102	0x3e699855	0.22812016
103	0x3ddb4e37	0.10708278
104	0xbe944e35	-0.28965917
105	0x3e51cda4	0.20488602
106	0xbdc6e3e7	-0.09711438
107	0xbd8f123a	-0.06985898
108	0x39d3140f	0.0004026
109	0x3d91a721	0.071119554
110	0xbe57f265	-0.2108856
111	0xbe57ff5f	-0.2109351
112	0xbd97acc1	-0.07405997
113	0x3e4768d7	0.19473587
114	0x3d538021	0.051635865
115	0x3d58047e	0.05273866
116	0x3c6dbb83	0.014510038
117	0xbe175387	-0.14777957
118	0x3e4c14e4	0.19929844
119	0x3e2ba7ec	0.16763276
120	0xbe02ece1	-0.12785675
121	0xbd4a2dc9	-0.04936007
122	0x3d47a014	0.048736647
123	0xbe62c95c	-0.22147125
124	0x3e4bfb92	0.19920185
125	0xbd8788ca	-0.06617887
126	0xbc3a8a40	-0.0113855
127	0x3af4f406	0.0018688447
128	0x3d93a40f	0.07209026
129	0x3dd715b6	0.10502188
130	0x3de79c6c	0.11309132
131	0x3e0173af	0.12641786
132	0xbd2af6b2	-0.041739173
133	0x3e10ba72	0.14133623
134	0x3ba091dc	0.0049002003
135	0x3df79ef8	0.12090868
136	0xbe7ab610	-0.24483514
137	0x3ca6793b	0.020321479
138	0x3e36cc10	0.17851281
139	0xbdc53671	-0.096295245
140	0xbcfbc18b	-0.030731937
141	0x3cadeb6e	0.021230426
142	0x3e3fb34d	0.18720742
143	0xbdf5143e	-0.119667515
144	0xbe0fc761	-0.14040901
145	0x3e3ed70a	0.18636718
146	0xbe20239b	-0.15638582
147	0x3e0529bd	0.13004203
148	0xbc0b341f	-0.008496313
149	0xbe73a689	-0.23793997
150	0x3e605062	0.21905664
151	0x3d07cfde	0.033157222
152	0xbbd07d55	-0.006362597
153	0xbe2a818a	-0.16650978
154	0x3eae2506	0.34012622
155	0xbe58911b	-0.21149103
156	0xbda04703	-0.078260444
157	0x3dc44657	0.09583729
158	0x3d46bd5e	0.04852044
159	0xbe1dfcc9	-0.15428461
160	0x3e13546a	0.1438767
161	0x3bca732c	0.0061782803
162	0xbe1d55ff	-0.15364836
163	0x3e5c875f	0.21536015
164	0xbcefaf8e	-0.029258516
165	0xbe2d33bd	-0.16914268
166	0x3e107913	0.14108686
167	0xbdcefc1f	-0.10106682
168	0xbd779ed5	-0.06045421
169	0x3d683a6f	0.05669635
170	0x3def473f	0.11683511
171	0xbe67c4a4	-0.22633606
172	0xbfcd216e	-1.6025827
173	0xbf7b66c5	-0.9820369
174	0x3d574950	0.05256015
175	0xbe81673f	-0.25274083
176	0xbcb0264d	-0.021502638
177	0x3e83e711	0.25762227
178	0x3d3ef637	0.046621528
179	0x3ca49388	0.02008988
180	0xbe2912ae	-0.16511032
181	0x3d0eb5f8	0.034841508
182	0x3e3b902a	0.18316713
183	0xbee8ea42	-0.45491225
184	0xbd9256e3	-0.071454786
185	0x3e784870	0.24246383
186	0xbf2204b8	-0.6328845
187	0xbe28176f	-0.16415189
188	0xbddb56b4	-0.10709897
189	0x3d8aec0a	0.06783302
190	0xbe5ad656	-0.21370825
191	0xbd803ae4	-0.062612325
192	0xbe99b140	-0.30018044
193	0xbdf812b7	-0.121129446
194	0x3e7d809c	0.24756092
195	0x3ddc8e22	0.10769297
196	0x3dd71d6e	0.1050366
197	0x3cb46859	0.022022413
198	0x3aef4baf	0.0018256808
199	0xbda57a67	-0.08079987
200	0xbebcdf9b	-0.36889347
201	0xbe193cf2	-0.14964655
202	0xbe2c0305	-0.16798027
203	0x3db2eb77	0.087363176
204	0x3e289993	0.16464834
205	0x3e77a7e9	0.24185146
206	0x3e8895ec	0.2667688
207	0x3ea74416	0.32669133
208	0xbdf27bb2	-0.11839999
209	0xbe598846	-0.2124339
210	0xbd75ffae	-0.06005829
211	0x3e532814	0.20620757
212	0x3e259b04	0.16172415
213	0xbe824bc9	-0.25448444
214	0xbe206303	-0.1566277
215	0x3df30182	0.11865522
216	0xbbad9c80	-0.0052981973
217	0x3e29407a	0.16528502
218	0x3e3fcaf2	0.18729761
219	0x3e121d30	0.14268947
220	0x3df8f137	0.12155383
221	0xbd3e183d	-0.046409834
222	0xbe8d48d2	-0.2759462
223	0xbe980849	-0.2969382
224	0xbdebd2bf	-0.11514806
225	0x3e1d8630	0.1538322
226	0xbc107f4c	-0.008819412
227	0xbeba0831	-0.36334375
228	0xbcab5602	-0.020915035
229	0xbdac6b57	-0.08418911
230	0xbee2b156	-0.44275922
231	0xbcc61edc	-0.024184637
232	0x3e048d9b	0.12944643
233	0x3d3c053e	0.045903437
234	0xbe25fad1	-0.1620896
235	0xbda3ca40	-0.079975605
236	0x3e0b68a9	0.13614143
237	0xbde2c9bd	-0.11073635
238	0x3dd6aad0	0.10481799
239	0xbc7fa1d9	-0.015602552
240	0x3dddc681	0.10828877
241	0x386effdc	5.698191e-05
242	0xbddc00f3	-0.107423685
243	0xbe265008	-0.16241467
244	0xbe1432e6	-0.14472541
245	0x3eaa64da	0.3328007
246	0xbe7da11d	-0.24768491
247	0x3d9045ae	0.0704454
248	0x3e3b4df1	0.18291451
249	0xbdc5b95b	-0.096544944
250	0xbd970769	-0.0737446
251	0x3e30d228	0.17267668
252	0xbe35d22a	-0.17755952
253	0x3d059d53	0.03262074
254	0xbe00155b	-0.12508146
255	0xbdc00560	-0.09376025

sequential_2/conv2d_7/Conv2D f4 [64, 3, 3, 32]
0	0xbdaa0962	-0.08302571
1	0x3dce874e	0.10084401
2	0x3d7b5459	0.061359737
3	0x3df1e0c1	0.118104465
4	0x3d8e739c	0.069556445
5	0x3dafa652	0.08576645
6	0x3cd4dab8	0.0259832
7	0xbd66e3fd	-0.05636977
8	0x3c92f1b8	0.017937526
9	0x3d1409e1	0.036142234
10	0x3de51ab7	0.11186736
11	0x3dda4a15	0.10658661
12	0x3acdfd8d	0.0015715823
13	0x3da9c64c	0.08289775
14	0xbc94149b	-0.018076232
15	0xbdf8896d	-0.12135587
16	0x3c9fdbdd	0.019514019
17	0x3b8c1e84	0.0042760987
18	0xbdd464eb	-0.10370811
19	0xbf006a49	-0.5016218
20	0x3dc79fee	0.09747301
21	0x3bf7df18	0.0075644366
22	0xbd750143	-0.059815656
23	0x3e50aa9e	0.20377585
24	0xbd619212	-0.055070944
25	0xbe1e072c	-0.15432423
26	0x3d514e3d	0.051100004
27	0x3e0a5521	0.13509037
28	0xbd9279b4	-0.07152119
29	0x3c29f016	0.010372182
30	0xbe6511c6	-0.22370061
31	0x3d99490e	0.07484637
32	0xbe45cec0	-0.1931715
33	0x3dddc281	0.10828114
34	0xbe712327	-0.23548566
35	0xbcf65f43	-0.030074721
36	0x3de763c2	0.11298324
37	0x3d205b5d	0.03914963
38	0x3d077f1d	0.03308021
39	0xbd8ea038	-0.06964153
40	0xbc87784d	-0.016536856
41	0xbdcecaed	-0.10097299
42	0x3e243cd9	0.16038837
43	0xbde80a88	-0.11330134
44	0xbd901608	-0.07035452
45	0xbd1e9ed7	-0.0387257
46	0xbc28f084	-0.01031125
47	0xbcad5d40	-0.02116263
48	0xbe7140bb	-0.23559849
49	0xbdfa77de	-0.12229894
50	0xbcdb0855	-0.026737371
51	0xbe8bb576	-0.2728688
52	0xbdd20adc	-0.102559775
53	0xbdca24c0	-0.09870291
54	0xbdf8d358	-0.121496856
55	0xbe444e24	-0.19170433
56	0x3e613974	0.21994573
57	0xbdb671a2	-0.089083925
58	0xbdecfedb	-0.11572047
59	0xbdd647f8	-0.10462946
60	0xbd39d6cb	-0.04537086
61	0xbe449d0d	-0.19200535
62	0xbd99dcd3	-0.07512822
63	0x3eb9e53d	0.36307707
64	0xbe1b5c93	-0.15172033
65	0x3e496c80	0.19670296
66	0x3e6a7334	0.22895509
67	0xbd26ce55	-0.040724117
68	0x3e4835be	0.19551751
69	0xbce694a1	-0.028147044
70	0x3d325b40	0.043544054
71	0x3d386560	0.045018554
72	0x3dae17c9	0.085006304
73	0xbda736cf	-0.08164751
74	0x3c821719	0.015880154
75	0x3cac395b	0.021023443
76	0xbd585d62	-0.05282343
77	0x3da60b4b	0.08107623
78	0xbad5127a	-0.0016256117
79	0x3df4f56e	0.119608745
80	0x3e2b9d86	0.16759309
81	0x3d6a6a62	0.05723036
82	0x3d5142f8	0.051089257
83	0xbdbd8221	-0.09253336
84	0xbda75550	-0.08170569
85	0xbc235569	-0.009969094
86	0x3e4ccef7	0.20000826
87	0xbd646202	-0.05575753
88	0x3e2b68e5	0.16739233
89	0x3e1c0321	0.15235569
90	0xbe002c7e	-0.12516972
91	0xbe2d820d	-0.16944142
92	0xbe75a8c3	-0.23990159
93	0x3e057496	0.13032755
94	0x3d0e4081	0.034729484
95	0x3e89b7b7	0.26897976
96	0xbe0bf808	-0.13668835
97	0xbd3e65df	-0.04648387
98	0xba67c003	-0.00088405627
99	0xbd48aec1	-0.048994783
100	0x3c425359	0.011860692
101	0x3c11e4ab	0.008904616
102	0x3cd8840c	0.026430152
103	0x39be7cf4	0.0003633272
104	0x3cec1708	0.028819576
105	0x3cf11a66	0.029431533
106	0x3db68d44	0.08913663
107	0x3db57cb1	0.088616736
108	0xbdc7534d	-0.09732685
109	0xbd82dd33	-0.06389847
110	0xbc2470b5	-0.010036637
111	0xbd431341	-0.047625784
112	0x3e0ff177	0.14056955
113	0xbdbde012	-0.09271254
114	0xbd91eb66	-0.07124977
115	0xbd992699	-0.07478065
116	0xbd11adb3	-0.035566043
117	0x3e235c7e	0.15953252
118	0x3d118ff6	0.035537682
119	0x3e21648e	0.15761015
120	0x3c142d27	0.009043968
121	0x3c6825ac	0.014169138
122	0xbc45845f	-0.0120554855
123	0x3c9016aa	0.017588932
124	0x3caa2704	0.020770557
125	0x3e3e32c2	0.1857405
126	0xbe0e78a3	-0.13913207
127	0xbd22ad12	-0.039715834
128	0xbe5decf3	-0.2167242
129	0xbe0835e1	-0.13301803
130	0x3da1f458	0.07907933
131	0xbd8c8b89	-0.06862552
132	0x3e323643	0.17403512
133	0x3d163394	0.036670282
134	0x3d3e753d	0.046498526
135	0xbc057666	-0.008145904
136	0x3dd36403	0.1032181
137	0xbd91a3a8	-0.07111293
138	0xbdc16b4e	-0.09444295
139	0x3d0862f7	0.033297505
140	0x3d6ef0ab	0.058334988
141	0xbde353b4	-0.110999495
142	0xbd6a0549	-0.057133947
143	0x3db32278	0.08746809
144	0xbe134aa5	-0.14383943
145	0xbd0d5e3e	-0.034513704
146	0xbd98cae6	-0.07460575
147	0xbda91fba	-0.082580045
148	0xbe2d45a7	-0.16921102
149	0x3dd54e61	0.1041534
150	0x3e92f6a9	0.28703812
151	0xbdb5c3bb	-0.08875223
152	0xbb70503d	-0.003666892
153	0xbd32732d	-0.04356687
154	0x3d0e2b2e	0.034709148
155	0xbd980eab	-0.07424673
156	0xbcdabdd2	-0.026701842
157	0xbd9b3f9a	-0.075804904
158	0xbe80d914	-0.25165617
159	0x3df5aa8c	0.1199542
160	0x3d4627c7	0.04837778
161	0xbd6e2ed1	-0.058150116
162	0x3e43c381	0.19117548
163	0xbd14c9d8	-0.036325306
164	0xbda617d9	-0.08110017
165	0xbda7a923	-0.08186557
166	0xbccafc65	-0.024778554
167	0xbdae89e9	-0.08522398
168	0x3ddb848b	0.1071864
169	0x3c2a11f5	0.010380258
170	0xbdf4145a	-0.11917944
171	0xbde8ae85	-0.11361412
172	0x3c913ee5	0.017730186
173	0xbde49218	-0.11160678
174	0xbdb82295	-0.08990971
175	0xbc76dbdf	-0.01506707
176	0x3db4b9ca	0.08824499
177	0x3e81e2d9	0.25368384
178	0x3ddfd3aa	0.109290436
179	0xbcaebc47	-0.021330012
180	0xbe433731	-0.19064023
181	0x3d7d8757	0.06189665
182	0x3efc5af0	0.4928813
183	0x3d63439a	0.05548439
184	0xbe61d283	-0.2205296
185	0x3e34b12d	0.17645712
186	0xbdb5be9f	-0.08874249
187	0xbe59a54d	-0.21254463
188	0x3ddbbbe2	0.10729195
189	0x3d60786f	0.054802354
190	0x3e6cbd77	0.2311915
191	0xbd4f3eb3	-0.050596904
192	0xbe4bbd41	-0.19896413
193	0xbde5627f	-0.11200427
194	0xbcbf9a4a	-0.023389
195	0x3d20f4ee	0.039296083
196	0xbcaed3aa	-0.021341164
197	0x3d8501da	0.06494494
198	0x3badc9be	0.0053035906
199	0xbcf5a6ac	-0.029986702
200	0x3da17c2e	0.078850135
201	0xbd7a8bfe	-0.061168663
202	0xbb72ca39	-0.0037046804
203	0xbe30c6b4	-0.17263299
204	0x3d82a6df	0.063794844
205	0xbd92ac59	-0.07161779
206	0x3cec3629	0.02883442
207	0xbd4f22e1	-0.050570372
208	0xbdb3a2b4	-0.087712675
209	0x3db39d89	0.08770282
210	0x3d91e6d0	0.07124102
211	0xbe99637d	-0.29958716
212	0x3ba2f7a8	0.0049733706
213	0xbe14869a	-0.14504471
214	0x3d7c9631	0.06166667
215	0x3da2a3eb	0.07941421
216	0xbe1ead67	-0.15495835
217	0x3d8778cb	0.06614836
218	0xbe167644	-0.14693552
219	0x3e19ea72	0.1503084
220	0xbce31dde	-0.027724203
221	0x3d6fa9a4	0.05851139
222	0xbd156cab	-0.036480587
223	0xbdc1a641	-0.094555385
224	0xbe961de2	-0.29319674
225	0xbc829da1	-0.015944304
226	0x3d530044	0.051513925
227	0xbd2180eb	-0.039429586
228	0x3da82357	0.082098655
229	0xbd8f9c27	-0.070122056
230	0x3dd00797	0.10157698
231	0xbc5a1997	-0.013311765
232	0xbd9e70dc	-0.0773637
233	0x3db2fc17	0.087394886
234	0xbe160a27	-0.1465231
235	0xbe0d837d	-0.1381969
236	0x3e2d0145	0.16895016
237	0xbd70de4f	-0.05880576
238	0x3c73ce57	0.014880738
239	0x3e6954f2	0.2278631
240	0xbd0dfb85	-0.034663696
241	0x3cbd8ca6	0.023138355
242	0x3cd025ac	0.025408588
243	0xbc5efb83	-0.01360977
244	0xbe49b197	-0.19696651
245	0x3e1bc022	0.15210012
246	0x3ee27b8a	0.44234878
247	0x3ce5a8bd	0.028034562
248	0xbe17269f	-0.14760827
249	0x3d6c34c4	0.05766751
250	0x3d1d648c	0.038425967
251	0xbcff20d3	-0.031143581
252	0x3e42ece9	0.19035687
253	0x38b5e84c	8.674021e-05
254	0x3d92ff89	0.07177646
255	0xbe38a5d4	-0.18032008

sequential_2/conv2d_8/Conv2D f4 [64, 3, 3, 64]
0	0x3d1f9b22	0.038966306
1	0xbdba61eb	-0.091007076
2	0xbd7b6263	-0.061373126
3	0xbd9040ae	-0.07043587
4	0xbd40ffd4	-0.047118977
5	0x3ca8e908	0.02061893
6	0x3d571115	0.052506525
7	0xbcaae52f	-0.020861236
8	0xbddbabf2	-0.10726155
9	0x3cb85963	0.02250356
10	0x3b9439ab	0.004523476
11	0xbdeb7dc4	-0.11498597
12	0x3b07853e	0.0020678784
13	0xbd9261cb	-0.07147559
14	0xbda99da1	-0.082820185
15	0xbcf73ccb	-0.030180356
16	0xbdb82e85	-0.08993248
17	0xbd9e50e9	-0.07730276
18	0xbbca56f6	-0.0061749173
19	0x3b777a8e	0.0037762257
20	0xbd4756ce	-0.048666768
21	0xbcf73dc0	-0.030180812
22	0x3da8124f	0.08206617
23	0xbda9d4f5	-0.082925715
24	0xbda1e75b	-0.07905456
25	0x3d184ff3	0.03718562
26	0xbd6f8f40	-0.058486223
27	0x3d4e8846	0.05042293
28	0x3cfa2856	0.030536812
29	0xbdc16156	-0.094423935
30	0xbd5b8145	-0.053590078
31	0x3d2967b3	0.04135866
32	0xbd998ae2	-0.07497193
33	0x3cd04e6e	0.025428023
34	0x3c7f9ebe	0.015601812
35	0xbdb4c203	-0.08826067
36	0x3b127a02	0.0022350554
37	0x3cc14f3f	0.023597358
38	0xbc60c27e	-0.013718246
39	0xbd6672b7	-0.056261744
40	0x3cb9e357	0.022691412
41	0x3cc4c836	0.02402125
42	0x3c098fde	0.008396117
43	0xbdbe3963	-0.092882894
44	0xbdd10dde	-0.10207723
45	0xbd13f822	-0.03612531
46	0x3caccfde	0.021095213
47	0xbd947c12	-0.07250227
48	0x3cbb6668	0.02287598
49	0xbcb84cb2	-0.022497509
50	0x3bd046c5	0.0063560926
51	0xbd0cb35e	-0.034350745
52	0xbb674c9d	-0.0035293468
53	0xbd1ae86c	-0.03781931
54	0x3d386f3e	0.045027964
55	0xbd0bd0b6	-0.03413459
56	0x3b96d4bc	0.0046029966
57	0x3bea85c9	0.0071570617
58	0xbd285cbe	-0.04110407
59	0xbd4ba058	-0.049713463
60	0xbce21696	-0.02759866
61	0xbd155f53	-0.03646786
62	0xbdc14e38	-0.09438747
63	0xbd2189d9	-0.039438102
64	0x3c0b6132	0.00850706
65	0xbbfe2839	-0.0077562598
66	0xbdec742a	-0.11545594
67	0xbd9cd740	-0.07658243
68	0x3d847dea	0.06469329
69	0xbc14be62	-0.009078594
70	0xbd2f5d54	-0.042813614
71	0xbdbd3fef	-0.0924071
72	0xbdad7e2e	-0.084713325
73	0xbce00dc7	-0.02735032
74	0xbceb6e34	-0.028739072
75	0xbdeedc87	-0.11663156
76	0xbb4c2dbd	-0.0031155192
77	0xbc206587	-0.009789831
78	0x3cb16fa7	0.021659685
79	0xbdf84080	-0.121216774
80	0x3d954af3	0.07289686
81	0xbbcff073	-0.0063458025
82	0xbcac18ae	-0.021007862
83	0xbc995657	-0.018717928
84	0xbdeffbdb	-0.117179595
85	0x3c87e48f	0.016588477
86	0xbc9ca22e	-0.019120302
87	0x3d7501be	0.059816115
88	0xbd9d59af	-0.076831214
89	0xbb83921b	-0.00401522
90	0x3ce6be43	0.028166896
91	0x3ca6f0ad	0.020378435
92	0xbd877bd5	-0.06615416
93	0xbce2afb8	-0.02767168
94	0x3c2c35ff	0.010510921
95	0xbd73c70c	-0.059515998
96	0xbcf640b6	-0.030060153
97	0xbcfd41dc	-0.030915193
98	0xbd82bba7	-0.06383448
99	0xbc8e5bc4	-0.017377742
100	0x3d20ba7d	0.03924035
101	0xbd1cf2ea	-0.0383176
102	0x3d4e8439	0.050419066
103	0xbc00b778	-0.007856242
104	0xbcb8eeab	-0.022574743
105	0x3c1f7d94	0.00973453
106	0x3d5a7fc5	0.053344507
107	0x3d41ee37	0.04734632
108	0xbcfb29d1	-0.030659588
109	0xbd4008e5	-0.046883482
110	0xbce62312	-0.028092895
111	0xbdbf1b56	-0.09331386
112	0xbcf456fe	-0.029826637
113	0xbcc71671	-0.024302693
114	0x3ce0f510	0.027460605
115	0x3c9a89bd	0.018864507
116	0x3c4a3025	0.01234058
117	0xbb345f87	-0.002752276
118	0x3c815a78	0.01579021
119	0xbdc24cda	-0.094873145
120	0x3bb3a28c	0.0054820236
121	0x3cd882fb	0.026429644
122	0xbd93f421	-0.07224298
123	0xbd8f45f4	-0.069957644
124	0x3ce12951	0.027485522
125	0xbd9b0ea9	-0.075711556
126	0x3d21b739	0.039481375
127	0xbce3e0d9	-0.027817177
128	0xbc7898fa	-0.015173191
129	0xbca8e81f	-0.020618496
130	0xbcc1a413	-0.023637807
131	0x3c82ac97	0.015951438
132	0x3d4644e7	0.048405554
133	0x3d53c52f	0.05170172
134	0x3ce1edfa	0.027579296
135	0xbe1d1412	-0.15339687
136	0xbde37ec2	-0.111081615
137	0xbc8db455	-0.017297903
138	0xbd21eea2	-0.03953422
139	0xbd6b79da	-0.057489254
140	0x3cacf22c	0.02111157
141	0x3d0a372f	0.033744033
142	0x3d74e2d0	0.059786618
143	0x3a4b3172	0.00077512034
144	0xbd727cf1	-0.059201185
145	0x3acf70b1	0.0015826431
146	0xbacfe3f2	-0.001586078
147	0xbca2e283	-0.0198834
148	0x3c81bfab	0.015838465
149	0xbcb3d9c1	-0.02195442
150	0xbd1aa384	-0.037753597
151	0xbda2c266	-0.07947235
152	0xbcf6c251	-0.030121954
153	0xbc91c5e7	-0.017794563
154	0xbd9eb559	-0.07749433
155	0xbcbd840c	-0.023134254
156	0xbd14801b	-0.036254983
157	0x3c803914	0.015652217
158	0xbdc1579b	-0.094405375
159	0xbde85e88	-0.113461554
160	0xbd7b7c3a	-0.06139777
161	0xbddb1f7f	-0.10699367
162	0xbd5001d0	-0.05078298
163	0xbc88bfb0	-0.016692966
164	0x3d925df9	0.0714683
165	0xbca7d677	-0.020488007
166	0x3cbe3760	0.023219764
167	0xbd63764e	-0.055532746
168	0xbdd5e37c	-0.1044378
169	0x3c0e940f	0.008702292
170	0xbc5b57ff	-0.013387679
171	0xbbb36ac8	-0.005475376
172	0xbd87c9d5	-0.06630293
173	0x3d143a31	0.03618831
174	0xbd9088c2	-0.070573345
175	0xbd0172ce	-0.031603627
176	0xbafb7227	-0.00191838
177	0xbd4a814b	-0.04943971
178	0xbc4aa1ac	-0.012367647
179	0xbda33598	-0.079692066
180	0x3d3db0df	0.046311256
181	0xbcd6614c	-0.026169442
182	0x3d2563ab	0.040378254
183	0xbdf1b34c	-0.11801776
184	0x3c807856	0.01568238
185	0xbd5ec883	-0.05439044
186	0xbd0e2850	-0.034706414
187	0xbcc58444	-0.02411092
188	0xbdc651ed	-0.09683595
189	0xbe00647b	-0.1253833
190	0xbce3eecf	-0.027823834
191	0xbbb260f5	-0.005443687
192	0x3ceae358	0.02867286
193	0xbd8be402	-0.068305984
194	0xbd91ae7e	-0.0711336
195	0xbd298295	-0.0413843
196	0x3b992163	0.0046731695
197	0xbc234aef	-0.009966596
198	0x3d851876	0.06498806
199	0xbdbfb8af	-0.093613975
200	0x3ccf8ac6	0.025334727
201	0x3cb75745	0.02238048
202	0xbcc91e21	-0.0245505
203	0xbd86f4ff	-0.06589698
204	0x3c878e75	0.016547421
205	0xbdaab7d6	-0.08335845
206	0xbd34ab4a	-0.044108666
207	0xbd95e0a7	-0.0731824
208	0xbdd9c0b4	-0.10632458
209	0xbcb8c1aa	-0.022553284
210	0xbdb1ae1e	-0.08675788
211	0xbc8d0e50	-0.017218739
212	0xbd546edd	-0.05186354
213	0xbca26fd7	-0.01982872
214	0x3cfc879e	0.030826386
215	0xbc6f264b	-0.014596532
216	0xbd4def55	-0.050277073
217	0x3cf61d5d	0.030043298
218	0xbdc222ae	-0.09479271
219	0x3cf88ced	0.030340636
220	0xbcb199cd	-0.021679783
221	0xbc9ecc44	-0.01938451
222	0x3c3a22ef	0.011360868
223	0xbd818af5	-0.06325332
224	0x3cb86421	0.022508683
225	0xbdf63681	-0.120221145
226	0xbc8cd7bf	-0.01719272
227	0xbc8e6477	-0.01738189
228	0x3d23809f	0.039917585
229	0xbdae3f65	-0.08508185
230	0xbbcea9fd	-0.0063068853
231	0x3c5f59a8	0.013632216
232	0xbc293792	-0.01032819
233	0xbcbe6f10	-0.023246318
234	0xbddde67d	-0.10834978
235	0xbd788aba	-0.060679175
236	0x3d46a114	0.04849346
237	0xbc4c7199	-0.012478256
238	0x3da44588	0.080210745
239	0xbca0e11b	-0.019638589
240	0xba32f248	-0.0006826264
241	0xbdc0224c	-0.093815416
242	0xbda7b762	-0.08189274
243	0xbd9bfb57	-0.07616299
244	0x3c252fc4	0.010082189
245	0x3c8a5d48	0.016890183
246	0xbae7ea48	-0.0017693723
247	0xbd882763	-0.066481374
248	0xbd50a404	-0.050937667
249	0xbd66a48e	-0.056309275
250	0xbd645e84	-0.0557542
251	0x3c692e9b	0.014232303
252	0xbd48fbad	-0.04906814
253	0xbd003ca9	-0.03130785
254	0xbccd3b69	-0.025052743
255	0xbd7e8f56	-0.062148415
